ST Edge AI Core v2.2.0-20266 2adc00962
Created date          : 2025-11-21 12:20:42
Parameters            : analyze --model /home/mrusso/.stm32_ai_models/customized/customized_final_20251121_121825.h5 --target stm32f4 --output ./analisiAI/report_analyze

Exec/report summary (analyze)
------------------------------------------------------------------------------------------------------
model file         :   /home/mrusso/.stm32_ai_models/customized/customized_final_20251121_121825.h5   
type               :   keras                                                                          
c_name             :   network                                                                        
compression        :   lossless                                                                       
options            :   allocate-inputs, allocate-outputs                                              
optimization       :   balanced                                                                       
target/series      :   stm32f4                                                                        
workspace dir      :   /mnt/shared-storage/mrusso/Langgraph_General_v6/st_ai_ws                       
output dir         :   /mnt/shared-storage/mrusso/Langgraph_General_v6/analisiAI/report_analyze       
model_fmt          :   float                                                                          
model_name         :   customized_final_20251121_121825                                               
model_hash         :   0xc52f89e5078138bb5cfd89b85c8bf034                                             
params #           :   3,504,872 items (13.37 MiB)                                                    
------------------------------------------------------------------------------------------------------
input 1/1          :   'input_1', f32(1x224x224x3), 588.00 KBytes, activations                        
output 1/1         :   'predictions', f32(1x1000), 3.91 KBytes, activations                           
macc               :   313,298,016                                                                    
weights (ro)       :   13,951,264 B (13.30 MiB) (1 segment) / -68,224(-0.5%) vs float model           
activations (rw)   :   4,917,696 B (4.69 MiB) (1 segment) *                                           
ram (total)        :   4,917,696 B (4.69 MiB) = 4,917,696 + 0 + 0                                     
------------------------------------------------------------------------------------------------------
(*) 'input'/'output' buffers are allocated in the activations buffer

Model name - customized_final_20251121_121825
------ -------------------------------------------------------------- ------------------------ --------------------- ------------ ------------------------------- --- ----------------------- ------------------------ --------------------------------- 
m_id   layer (type,original)                                          oshape                   param/size                    macc                    connected to   | c_size                  c_macc                   c_type                            
------ -------------------------------------------------------------- ------------------------ --------------------- ------------ ------------------------------- --- ----------------------- ------------------------ --------------------------------- 
0      input_1 (Input, InputLayer)                                    [b:1,h:224,w:224,c:3]                                                                         |                                                  
------ -------------------------------------------------------------- ------------------------ --------------------- ------------ ------------------------------- --- ----------------------- ------------------------ --------------------------------- 
1      Conv1 (Conv2D, Conv2D)                                         [b:1,h:112,w:112,c:32]   864/3,456               10,838,016                         input_1   | -3,456(-100.0%)         -10,838,016(-100.0%)     
------ -------------------------------------------------------------- ------------------------ --------------------- ------------ ------------------------------- --- ----------------------- ------------------------ --------------------------------- 
2      bn_Conv1 (ScaleBias, BatchNormalization)                       [b:1,h:112,w:112,c:32]   64/256                     802,816                           Conv1   | +3,328(+1300.0%)        +10,035,232(+1250.0%)    Conv2D_[0]                        
------ -------------------------------------------------------------- ------------------------ --------------------- ------------ ------------------------------- --- ----------------------- ------------------------ --------------------------------- 
3      Conv1_relu (Nonlinearity, ReLU)                                [b:1,h:112,w:112,c:32]                              401,408                        bn_Conv1   |                         +401,408(+100.0%)        Nonlinearity_[1]                  
------ -------------------------------------------------------------- ------------------------ --------------------- ------------ ------------------------------- --- ----------------------- ------------------------ --------------------------------- 
4      expanded_conv_depthwise (Conv2D, DepthwiseConv2D)              [b:1,h:112,w:112,c:32]   288/1,152                3,612,672                      Conv1_relu   | -1,152(-100.0%)         -3,612,672(-100.0%)      
------ -------------------------------------------------------------- ------------------------ --------------------- ------------ ------------------------------- --- ----------------------- ------------------------ --------------------------------- 
5      expanded_conv_depthwise_BN (ScaleBias, BatchNormalization)     [b:1,h:112,w:112,c:32]   64/256                     802,816         expanded_conv_depthwise   | +1,024(+400.0%)         +2,809,888(+350.0%)      Conv2D_[2]                        
------ -------------------------------------------------------------- ------------------------ --------------------- ------------ ------------------------------- --- ----------------------- ------------------------ --------------------------------- 
6      expanded_conv_depthwise_relu (Nonlinearity, ReLU)              [b:1,h:112,w:112,c:32]                              401,408      expanded_conv_depthwise_BN   |                         +401,408(+100.0%)        Nonlinearity_[3]                  
------ -------------------------------------------------------------- ------------------------ --------------------- ------------ ------------------------------- --- ----------------------- ------------------------ --------------------------------- 
7      expanded_conv_project (Conv2D, Conv2D)                         [b:1,h:112,w:112,c:16]   512/2,048                6,422,528    expanded_conv_depthwise_relu   | -2,048(-100.0%)         -6,422,528(-100.0%)      
------ -------------------------------------------------------------- ------------------------ --------------------- ------------ ------------------------------- --- ----------------------- ------------------------ --------------------------------- 
8      expanded_conv_project_BN (ScaleBias, BatchNormalization)       [b:1,h:112,w:112,c:16]   32/128                     401,408           expanded_conv_project   | +1,984(+1550.0%)        +6,021,136(+1500.0%)     Conv2D_[4]                        
------ -------------------------------------------------------------- ------------------------ --------------------- ------------ ------------------------------- --- ----------------------- ------------------------ --------------------------------- 
9      block_1_expand (Conv2D, Conv2D)                                [b:1,h:112,w:112,c:96]   1,536/6,144             19,267,584        expanded_conv_project_BN   | -6,144(-100.0%)         -19,267,584(-100.0%)     
------ -------------------------------------------------------------- ------------------------ --------------------- ------------ ------------------------------- --- ----------------------- ------------------------ --------------------------------- 
10     block_1_expand_BN (ScaleBias, BatchNormalization)              [b:1,h:112,w:112,c:96]   192/768                  2,408,448                  block_1_expand   | +5,760(+750.0%)         +16,859,232(+700.0%)     Conv2D_[5]                        
------ -------------------------------------------------------------- ------------------------ --------------------- ------------ ------------------------------- --- ----------------------- ------------------------ --------------------------------- 
11     block_1_expand_relu (Nonlinearity, ReLU)                       [b:1,h:112,w:112,c:96]                            1,204,224               block_1_expand_BN   |                         +1,204,224(+100.0%)      Nonlinearity_[6]                  
------ -------------------------------------------------------------- ------------------------ --------------------- ------------ ------------------------------- --- ----------------------- ------------------------ --------------------------------- 
12     block_1_pad (Pad, ZeroPadding2D)                               [b:1,h:113,w:113,c:96]                                                  block_1_expand_relu   | +3,840(+100.0%)         +2,709,600(+100.0%)      Conv2D_[7]                        
------ -------------------------------------------------------------- ------------------------ --------------------- ------------ ------------------------------- --- ----------------------- ------------------------ --------------------------------- 
13     block_1_depthwise (Conv2D, DepthwiseConv2D)                    [b:1,h:56,w:56,c:96]     864/3,456                2,709,504                     block_1_pad   | -3,456(-100.0%)         -2,709,504(-100.0%)      
------ -------------------------------------------------------------- ------------------------ --------------------- ------------ ------------------------------- --- ----------------------- ------------------------ --------------------------------- 
14     block_1_depthwise_BN (ScaleBias, BatchNormalization)           [b:1,h:56,w:56,c:96]     192/768                    602,112               block_1_depthwise   | -768(-100.0%)           -602,112(-100.0%)        
------ -------------------------------------------------------------- ------------------------ --------------------- ------------ ------------------------------- --- ----------------------- ------------------------ --------------------------------- 
15     block_1_depthwise_relu (Nonlinearity, ReLU)                    [b:1,h:56,w:56,c:96]                                301,056            block_1_depthwise_BN   |                         +301,056(+100.0%)        Nonlinearity_[8]                  
------ -------------------------------------------------------------- ------------------------ --------------------- ------------ ------------------------------- --- ----------------------- ------------------------ --------------------------------- 
16     block_1_project (Conv2D, Conv2D)                               [b:1,h:56,w:56,c:24]     2,304/9,216              7,225,344          block_1_depthwise_relu   | -9,216(-100.0%)         -7,225,344(-100.0%)      
------ -------------------------------------------------------------- ------------------------ --------------------- ------------ ------------------------------- --- ----------------------- ------------------------ --------------------------------- 
17     block_1_project_BN (ScaleBias, BatchNormalization)             [b:1,h:56,w:56,c:24]     48/192                     150,528                 block_1_project   | +9,120(+4750.0%)        +7,074,840(+4700.0%)     Conv2D_[9]                        
------ -------------------------------------------------------------- ------------------------ --------------------- ------------ ------------------------------- --- ----------------------- ------------------------ --------------------------------- 
18     block_2_expand (Conv2D, Conv2D)                                [b:1,h:56,w:56,c:144]    3,456/13,824            10,838,016              block_1_project_BN   | -13,824(-100.0%)        -10,838,016(-100.0%)     
------ -------------------------------------------------------------- ------------------------ --------------------- ------------ ------------------------------- --- ----------------------- ------------------------ --------------------------------- 
19     block_2_expand_BN (ScaleBias, BatchNormalization)              [b:1,h:56,w:56,c:144]    288/1,152                  903,168                  block_2_expand   | +13,248(+1150.0%)       +9,934,992(+1100.0%)     Conv2D_[10]                       
------ -------------------------------------------------------------- ------------------------ --------------------- ------------ ------------------------------- --- ----------------------- ------------------------ --------------------------------- 
20     block_2_expand_relu (Nonlinearity, ReLU)                       [b:1,h:56,w:56,c:144]                               451,584               block_2_expand_BN   |                         +451,584(+100.0%)        Nonlinearity_[11]                 
------ -------------------------------------------------------------- ------------------------ --------------------- ------------ ------------------------------- --- ----------------------- ------------------------ --------------------------------- 
21     block_2_depthwise (Conv2D, DepthwiseConv2D)                    [b:1,h:56,w:56,c:144]    1,296/5,184              4,064,256             block_2_expand_relu   | -5,184(-100.0%)         -4,064,256(-100.0%)      
------ -------------------------------------------------------------- ------------------------ --------------------- ------------ ------------------------------- --- ----------------------- ------------------------ --------------------------------- 
22     block_2_depthwise_BN (ScaleBias, BatchNormalization)           [b:1,h:56,w:56,c:144]    288/1,152                  903,168               block_2_depthwise   | +4,608(+400.0%)         +3,161,232(+350.0%)      Conv2D_[12]                       
------ -------------------------------------------------------------- ------------------------ --------------------- ------------ ------------------------------- --- ----------------------- ------------------------ --------------------------------- 
23     block_2_depthwise_relu (Nonlinearity, ReLU)                    [b:1,h:56,w:56,c:144]                               451,584            block_2_depthwise_BN   |                         +451,584(+100.0%)        Nonlinearity_[13]                 
------ -------------------------------------------------------------- ------------------------ --------------------- ------------ ------------------------------- --- ----------------------- ------------------------ --------------------------------- 
24     block_2_project (Conv2D, Conv2D)                               [b:1,h:56,w:56,c:24]     3,456/13,824            10,838,016          block_2_depthwise_relu   | -13,824(-100.0%)        -10,838,016(-100.0%)     
------ -------------------------------------------------------------- ------------------------ --------------------- ------------ ------------------------------- --- ----------------------- ------------------------ --------------------------------- 
25     block_2_project_BN (ScaleBias, BatchNormalization)             [b:1,h:56,w:56,c:24]     48/192                     150,528                 block_2_project   | +13,728(+7150.0%)       +10,687,512(+7100.0%)    Conv2D_[14]                       
------ -------------------------------------------------------------- ------------------------ --------------------- ------------ ------------------------------- --- ----------------------- ------------------------ --------------------------------- 
26     block_2_add (Eltwise, Add)                                     [b:1,h:56,w:56,c:24]                                 75,264              block_1_project_BN   |                                                  Eltwise/add_[15]                  
                                                                                                                                               block_2_project_BN   | 
------ -------------------------------------------------------------- ------------------------ --------------------- ------------ ------------------------------- --- ----------------------- ------------------------ --------------------------------- 
27     block_3_expand (Conv2D, Conv2D)                                [b:1,h:56,w:56,c:144]    3,456/13,824            10,838,016                     block_2_add   | -13,824(-100.0%)        -10,838,016(-100.0%)     
------ -------------------------------------------------------------- ------------------------ --------------------- ------------ ------------------------------- --- ----------------------- ------------------------ --------------------------------- 
28     block_3_expand_BN (ScaleBias, BatchNormalization)              [b:1,h:56,w:56,c:144]    288/1,152                  903,168                  block_3_expand   | +13,248(+1150.0%)       +9,934,992(+1100.0%)     Conv2D_[16]                       
------ -------------------------------------------------------------- ------------------------ --------------------- ------------ ------------------------------- --- ----------------------- ------------------------ --------------------------------- 
29     block_3_expand_relu (Nonlinearity, ReLU)                       [b:1,h:56,w:56,c:144]                               451,584               block_3_expand_BN   |                         +451,584(+100.0%)        Nonlinearity_[17]                 
------ -------------------------------------------------------------- ------------------------ --------------------- ------------ ------------------------------- --- ----------------------- ------------------------ --------------------------------- 
30     block_3_pad (Pad, ZeroPadding2D)                               [b:1,h:57,w:57,c:144]                                                   block_3_expand_relu   | +5,760(+100.0%)         +1,016,208(+100.0%)      Conv2D_[18]                       
------ -------------------------------------------------------------- ------------------------ --------------------- ------------ ------------------------------- --- ----------------------- ------------------------ --------------------------------- 
31     block_3_depthwise (Conv2D, DepthwiseConv2D)                    [b:1,h:28,w:28,c:144]    1,296/5,184              1,016,064                     block_3_pad   | -5,184(-100.0%)         -1,016,064(-100.0%)      
------ -------------------------------------------------------------- ------------------------ --------------------- ------------ ------------------------------- --- ----------------------- ------------------------ --------------------------------- 
32     block_3_depthwise_BN (ScaleBias, BatchNormalization)           [b:1,h:28,w:28,c:144]    288/1,152                  225,792               block_3_depthwise   | -1,152(-100.0%)         -225,792(-100.0%)        
------ -------------------------------------------------------------- ------------------------ --------------------- ------------ ------------------------------- --- ----------------------- ------------------------ --------------------------------- 
33     block_3_depthwise_relu (Nonlinearity, ReLU)                    [b:1,h:28,w:28,c:144]                               112,896            block_3_depthwise_BN   |                         +112,896(+100.0%)        Nonlinearity_[19]                 
------ -------------------------------------------------------------- ------------------------ --------------------- ------------ ------------------------------- --- ----------------------- ------------------------ --------------------------------- 
34     block_3_project (Conv2D, Conv2D)                               [b:1,h:28,w:28,c:32]     4,608/18,432             3,612,672          block_3_depthwise_relu   | -18,432(-100.0%)        -3,612,672(-100.0%)      
------ -------------------------------------------------------------- ------------------------ --------------------- ------------ ------------------------------- --- ----------------------- ------------------------ --------------------------------- 
35     block_3_project_BN (ScaleBias, BatchNormalization)             [b:1,h:28,w:28,c:32]     64/256                      50,176                 block_3_project   | +18,304(+7150.0%)       +3,562,528(+7100.1%)     Conv2D_[20]                       
------ -------------------------------------------------------------- ------------------------ --------------------- ------------ ------------------------------- --- ----------------------- ------------------------ --------------------------------- 
36     block_4_expand (Conv2D, Conv2D)                                [b:1,h:28,w:28,c:192]    6,144/24,576             4,816,896              block_3_project_BN   | -24,576(-100.0%)        -4,816,896(-100.0%)      
------ -------------------------------------------------------------- ------------------------ --------------------- ------------ ------------------------------- --- ----------------------- ------------------------ --------------------------------- 
37     block_4_expand_BN (ScaleBias, BatchNormalization)              [b:1,h:28,w:28,c:192]    384/1,536                  301,056                  block_4_expand   | +23,808(+1550.0%)       +4,516,032(+1500.1%)     Conv2D_[21]                       
------ -------------------------------------------------------------- ------------------------ --------------------- ------------ ------------------------------- --- ----------------------- ------------------------ --------------------------------- 
38     block_4_expand_relu (Nonlinearity, ReLU)                       [b:1,h:28,w:28,c:192]                               150,528               block_4_expand_BN   |                         +150,528(+100.0%)        Nonlinearity_[22]                 
------ -------------------------------------------------------------- ------------------------ --------------------- ------------ ------------------------------- --- ----------------------- ------------------------ --------------------------------- 
39     block_4_depthwise (Conv2D, DepthwiseConv2D)                    [b:1,h:28,w:28,c:192]    1,728/6,912              1,354,752             block_4_expand_relu   | -6,912(-100.0%)         -1,354,752(-100.0%)      
------ -------------------------------------------------------------- ------------------------ --------------------- ------------ ------------------------------- --- ----------------------- ------------------------ --------------------------------- 
40     block_4_depthwise_BN (ScaleBias, BatchNormalization)           [b:1,h:28,w:28,c:192]    384/1,536                  301,056               block_4_depthwise   | +6,144(+400.0%)         +1,053,888(+350.1%)      Conv2D_[23]                       
------ -------------------------------------------------------------- ------------------------ --------------------- ------------ ------------------------------- --- ----------------------- ------------------------ --------------------------------- 
41     block_4_depthwise_relu (Nonlinearity, ReLU)                    [b:1,h:28,w:28,c:192]                               150,528            block_4_depthwise_BN   |                         +150,528(+100.0%)        Nonlinearity_[24]                 
------ -------------------------------------------------------------- ------------------------ --------------------- ------------ ------------------------------- --- ----------------------- ------------------------ --------------------------------- 
42     block_4_project (Conv2D, Conv2D)                               [b:1,h:28,w:28,c:32]     6,144/24,576             4,816,896          block_4_depthwise_relu   | -24,576(-100.0%)        -4,816,896(-100.0%)      
------ -------------------------------------------------------------- ------------------------ --------------------- ------------ ------------------------------- --- ----------------------- ------------------------ --------------------------------- 
43     block_4_project_BN (ScaleBias, BatchNormalization)             [b:1,h:28,w:28,c:32]     64/256                      50,176                 block_4_project   | +24,448(+9550.0%)       +4,766,752(+9500.1%)     Conv2D_[25]                       
------ -------------------------------------------------------------- ------------------------ --------------------- ------------ ------------------------------- --- ----------------------- ------------------------ --------------------------------- 
44     block_4_add (Eltwise, Add)                                     [b:1,h:28,w:28,c:32]                                 25,088              block_3_project_BN   |                                                  Eltwise/add_[26]                  
                                                                                                                                               block_4_project_BN   | 
------ -------------------------------------------------------------- ------------------------ --------------------- ------------ ------------------------------- --- ----------------------- ------------------------ --------------------------------- 
45     block_5_expand (Conv2D, Conv2D)                                [b:1,h:28,w:28,c:192]    6,144/24,576             4,816,896                     block_4_add   | -24,576(-100.0%)        -4,816,896(-100.0%)      
------ -------------------------------------------------------------- ------------------------ --------------------- ------------ ------------------------------- --- ----------------------- ------------------------ --------------------------------- 
46     block_5_expand_BN (ScaleBias, BatchNormalization)              [b:1,h:28,w:28,c:192]    384/1,536                  301,056                  block_5_expand   | +23,808(+1550.0%)       +4,516,032(+1500.1%)     Conv2D_[27]                       
------ -------------------------------------------------------------- ------------------------ --------------------- ------------ ------------------------------- --- ----------------------- ------------------------ --------------------------------- 
47     block_5_expand_relu (Nonlinearity, ReLU)                       [b:1,h:28,w:28,c:192]                               150,528               block_5_expand_BN   |                         +150,528(+100.0%)        Nonlinearity_[28]                 
------ -------------------------------------------------------------- ------------------------ --------------------- ------------ ------------------------------- --- ----------------------- ------------------------ --------------------------------- 
48     block_5_depthwise (Conv2D, DepthwiseConv2D)                    [b:1,h:28,w:28,c:192]    1,728/6,912              1,354,752             block_5_expand_relu   | -6,912(-100.0%)         -1,354,752(-100.0%)      
------ -------------------------------------------------------------- ------------------------ --------------------- ------------ ------------------------------- --- ----------------------- ------------------------ --------------------------------- 
49     block_5_depthwise_BN (ScaleBias, BatchNormalization)           [b:1,h:28,w:28,c:192]    384/1,536                  301,056               block_5_depthwise   | +6,144(+400.0%)         +1,053,888(+350.1%)      Conv2D_[29]                       
------ -------------------------------------------------------------- ------------------------ --------------------- ------------ ------------------------------- --- ----------------------- ------------------------ --------------------------------- 
50     block_5_depthwise_relu (Nonlinearity, ReLU)                    [b:1,h:28,w:28,c:192]                               150,528            block_5_depthwise_BN   |                         +150,528(+100.0%)        Nonlinearity_[30]                 
------ -------------------------------------------------------------- ------------------------ --------------------- ------------ ------------------------------- --- ----------------------- ------------------------ --------------------------------- 
51     block_5_project (Conv2D, Conv2D)                               [b:1,h:28,w:28,c:32]     6,144/24,576             4,816,896          block_5_depthwise_relu   | -24,576(-100.0%)        -4,816,896(-100.0%)      
------ -------------------------------------------------------------- ------------------------ --------------------- ------------ ------------------------------- --- ----------------------- ------------------------ --------------------------------- 
52     block_5_project_BN (ScaleBias, BatchNormalization)             [b:1,h:28,w:28,c:32]     64/256                      50,176                 block_5_project   | +24,448(+9550.0%)       +4,766,752(+9500.1%)     Conv2D_[31]                       
------ -------------------------------------------------------------- ------------------------ --------------------- ------------ ------------------------------- --- ----------------------- ------------------------ --------------------------------- 
53     block_5_add (Eltwise, Add)                                     [b:1,h:28,w:28,c:32]                                 25,088                     block_4_add   |                                                  Eltwise/add_[32]                  
                                                                                                                                               block_5_project_BN   | 
------ -------------------------------------------------------------- ------------------------ --------------------- ------------ ------------------------------- --- ----------------------- ------------------------ --------------------------------- 
54     block_6_expand (Conv2D, Conv2D)                                [b:1,h:28,w:28,c:192]    6,144/24,576             4,816,896                     block_5_add   | -24,576(-100.0%)        -4,816,896(-100.0%)      
------ -------------------------------------------------------------- ------------------------ --------------------- ------------ ------------------------------- --- ----------------------- ------------------------ --------------------------------- 
55     block_6_expand_BN (ScaleBias, BatchNormalization)              [b:1,h:28,w:28,c:192]    384/1,536                  301,056                  block_6_expand   | +23,808(+1550.0%)       +4,516,032(+1500.1%)     Conv2D_[33]                       
------ -------------------------------------------------------------- ------------------------ --------------------- ------------ ------------------------------- --- ----------------------- ------------------------ --------------------------------- 
56     block_6_expand_relu (Nonlinearity, ReLU)                       [b:1,h:28,w:28,c:192]                               150,528               block_6_expand_BN   |                         +150,528(+100.0%)        Nonlinearity_[34]                 
------ -------------------------------------------------------------- ------------------------ --------------------- ------------ ------------------------------- --- ----------------------- ------------------------ --------------------------------- 
57     block_6_pad (Pad, ZeroPadding2D)                               [b:1,h:29,w:29,c:192]                                                   block_6_expand_relu   | +7,680(+100.0%)         +338,880(+100.0%)        Conv2D_[35]                       
------ -------------------------------------------------------------- ------------------------ --------------------- ------------ ------------------------------- --- ----------------------- ------------------------ --------------------------------- 
58     block_6_depthwise (Conv2D, DepthwiseConv2D)                    [b:1,h:14,w:14,c:192]    1,728/6,912                338,688                     block_6_pad   | -6,912(-100.0%)         -338,688(-100.0%)        
------ -------------------------------------------------------------- ------------------------ --------------------- ------------ ------------------------------- --- ----------------------- ------------------------ --------------------------------- 
59     block_6_depthwise_BN (ScaleBias, BatchNormalization)           [b:1,h:14,w:14,c:192]    384/1,536                   75,264               block_6_depthwise   | -1,536(-100.0%)         -75,264(-100.0%)         
------ -------------------------------------------------------------- ------------------------ --------------------- ------------ ------------------------------- --- ----------------------- ------------------------ --------------------------------- 
60     block_6_depthwise_relu (Nonlinearity, ReLU)                    [b:1,h:14,w:14,c:192]                                37,632            block_6_depthwise_BN   |                         +37,632(+100.0%)         Nonlinearity_[36]                 
------ -------------------------------------------------------------- ------------------------ --------------------- ------------ ------------------------------- --- ----------------------- ------------------------ --------------------------------- 
61     block_6_project (Conv2D, Conv2D)                               [b:1,h:14,w:14,c:64]     12,288/49,152            2,408,448          block_6_depthwise_relu   | -49,152(-100.0%)        -2,408,448(-100.0%)      
------ -------------------------------------------------------------- ------------------------ --------------------- ------------ ------------------------------- --- ----------------------- ------------------------ --------------------------------- 
62     block_6_project_BN (ScaleBias, BatchNormalization)             [b:1,h:14,w:14,c:64]     128/512                     25,088                 block_6_project   | +48,896(+9550.0%)       +2,383,424(+9500.3%)     Conv2D_[37]                       
------ -------------------------------------------------------------- ------------------------ --------------------- ------------ ------------------------------- --- ----------------------- ------------------------ --------------------------------- 
63     block_7_expand (Conv2D, Conv2D)                                [b:1,h:14,w:14,c:384]    24,576/98,304            4,816,896              block_6_project_BN   | -98,304(-100.0%)        -4,816,896(-100.0%)      
------ -------------------------------------------------------------- ------------------------ --------------------- ------------ ------------------------------- --- ----------------------- ------------------------ --------------------------------- 
64     block_7_expand_BN (ScaleBias, BatchNormalization)              [b:1,h:14,w:14,c:384]    768/3,072                  150,528                  block_7_expand   | +96,768(+3150.0%)       +4,666,752(+3100.3%)     Conv2D_[38]                       
------ -------------------------------------------------------------- ------------------------ --------------------- ------------ ------------------------------- --- ----------------------- ------------------------ --------------------------------- 
65     block_7_expand_relu (Nonlinearity, ReLU)                       [b:1,h:14,w:14,c:384]                                75,264               block_7_expand_BN   |                         +75,264(+100.0%)         Nonlinearity_[39]                 
------ -------------------------------------------------------------- ------------------------ --------------------- ------------ ------------------------------- --- ----------------------- ------------------------ --------------------------------- 
66     block_7_depthwise (Conv2D, DepthwiseConv2D)                    [b:1,h:14,w:14,c:384]    3,456/13,824               677,376             block_7_expand_relu   | -13,824(-100.0%)        -677,376(-100.0%)        
------ -------------------------------------------------------------- ------------------------ --------------------- ------------ ------------------------------- --- ----------------------- ------------------------ --------------------------------- 
67     block_7_depthwise_BN (ScaleBias, BatchNormalization)           [b:1,h:14,w:14,c:384]    768/3,072                  150,528               block_7_depthwise   | +12,288(+400.0%)        +527,232(+350.3%)        Conv2D_[40]                       
------ -------------------------------------------------------------- ------------------------ --------------------- ------------ ------------------------------- --- ----------------------- ------------------------ --------------------------------- 
68     block_7_depthwise_relu (Nonlinearity, ReLU)                    [b:1,h:14,w:14,c:384]                                75,264            block_7_depthwise_BN   |                         +75,264(+100.0%)         Nonlinearity_[41]                 
------ -------------------------------------------------------------- ------------------------ --------------------- ------------ ------------------------------- --- ----------------------- ------------------------ --------------------------------- 
69     block_7_project (Conv2D, Conv2D)                               [b:1,h:14,w:14,c:64]     24,576/98,304            4,816,896          block_7_depthwise_relu   | -98,304(-100.0%)        -4,816,896(-100.0%)      
------ -------------------------------------------------------------- ------------------------ --------------------- ------------ ------------------------------- --- ----------------------- ------------------------ --------------------------------- 
70     block_7_project_BN (ScaleBias, BatchNormalization)             [b:1,h:14,w:14,c:64]     128/512                     25,088                 block_7_project   | +98,048(+19150.0%)      +4,791,872(+19100.3%)    Conv2D_[42]                       
------ -------------------------------------------------------------- ------------------------ --------------------- ------------ ------------------------------- --- ----------------------- ------------------------ --------------------------------- 
71     block_7_add (Eltwise, Add)                                     [b:1,h:14,w:14,c:64]                                 12,544              block_6_project_BN   |                                                  Eltwise/add_[43]                  
                                                                                                                                               block_7_project_BN   | 
------ -------------------------------------------------------------- ------------------------ --------------------- ------------ ------------------------------- --- ----------------------- ------------------------ --------------------------------- 
72     block_8_expand (Conv2D, Conv2D)                                [b:1,h:14,w:14,c:384]    24,576/98,304            4,816,896                     block_7_add   | -98,304(-100.0%)        -4,816,896(-100.0%)      
------ -------------------------------------------------------------- ------------------------ --------------------- ------------ ------------------------------- --- ----------------------- ------------------------ --------------------------------- 
73     block_8_expand_BN (ScaleBias, BatchNormalization)              [b:1,h:14,w:14,c:384]    768/3,072                  150,528                  block_8_expand   | +96,768(+3150.0%)       +4,666,752(+3100.3%)     Conv2D_[44]                       
------ -------------------------------------------------------------- ------------------------ --------------------- ------------ ------------------------------- --- ----------------------- ------------------------ --------------------------------- 
74     block_8_expand_relu (Nonlinearity, ReLU)                       [b:1,h:14,w:14,c:384]                                75,264               block_8_expand_BN   |                         +75,264(+100.0%)         Nonlinearity_[45]                 
------ -------------------------------------------------------------- ------------------------ --------------------- ------------ ------------------------------- --- ----------------------- ------------------------ --------------------------------- 
75     block_8_depthwise (Conv2D, DepthwiseConv2D)                    [b:1,h:14,w:14,c:384]    3,456/13,824               677,376             block_8_expand_relu   | -13,824(-100.0%)        -677,376(-100.0%)        
------ -------------------------------------------------------------- ------------------------ --------------------- ------------ ------------------------------- --- ----------------------- ------------------------ --------------------------------- 
76     block_8_depthwise_BN (ScaleBias, BatchNormalization)           [b:1,h:14,w:14,c:384]    768/3,072                  150,528               block_8_depthwise   | +12,288(+400.0%)        +527,232(+350.3%)        Conv2D_[46]                       
------ -------------------------------------------------------------- ------------------------ --------------------- ------------ ------------------------------- --- ----------------------- ------------------------ --------------------------------- 
77     block_8_depthwise_relu (Nonlinearity, ReLU)                    [b:1,h:14,w:14,c:384]                                75,264            block_8_depthwise_BN   |                         +75,264(+100.0%)         Nonlinearity_[47]                 
------ -------------------------------------------------------------- ------------------------ --------------------- ------------ ------------------------------- --- ----------------------- ------------------------ --------------------------------- 
78     block_8_project (Conv2D, Conv2D)                               [b:1,h:14,w:14,c:64]     24,576/98,304            4,816,896          block_8_depthwise_relu   | -98,304(-100.0%)        -4,816,896(-100.0%)      
------ -------------------------------------------------------------- ------------------------ --------------------- ------------ ------------------------------- --- ----------------------- ------------------------ --------------------------------- 
79     block_8_project_BN (ScaleBias, BatchNormalization)             [b:1,h:14,w:14,c:64]     128/512                     25,088                 block_8_project   | +98,048(+19150.0%)      +4,791,872(+19100.3%)    Conv2D_[48]                       
------ -------------------------------------------------------------- ------------------------ --------------------- ------------ ------------------------------- --- ----------------------- ------------------------ --------------------------------- 
80     block_8_add (Eltwise, Add)                                     [b:1,h:14,w:14,c:64]                                 12,544                     block_7_add   |                                                  Eltwise/add_[49]                  
                                                                                                                                               block_8_project_BN   | 
------ -------------------------------------------------------------- ------------------------ --------------------- ------------ ------------------------------- --- ----------------------- ------------------------ --------------------------------- 
81     block_9_expand (Conv2D, Conv2D)                                [b:1,h:14,w:14,c:384]    24,576/98,304            4,816,896                     block_8_add   | -98,304(-100.0%)        -4,816,896(-100.0%)      
------ -------------------------------------------------------------- ------------------------ --------------------- ------------ ------------------------------- --- ----------------------- ------------------------ --------------------------------- 
82     block_9_expand_BN (ScaleBias, BatchNormalization)              [b:1,h:14,w:14,c:384]    768/3,072                  150,528                  block_9_expand   | +96,768(+3150.0%)       +4,666,752(+3100.3%)     Conv2D_[50]                       
------ -------------------------------------------------------------- ------------------------ --------------------- ------------ ------------------------------- --- ----------------------- ------------------------ --------------------------------- 
83     block_9_expand_relu (Nonlinearity, ReLU)                       [b:1,h:14,w:14,c:384]                                75,264               block_9_expand_BN   |                         +75,264(+100.0%)         Nonlinearity_[51]                 
------ -------------------------------------------------------------- ------------------------ --------------------- ------------ ------------------------------- --- ----------------------- ------------------------ --------------------------------- 
84     block_9_depthwise (Conv2D, DepthwiseConv2D)                    [b:1,h:14,w:14,c:384]    3,456/13,824               677,376             block_9_expand_relu   | -13,824(-100.0%)        -677,376(-100.0%)        
------ -------------------------------------------------------------- ------------------------ --------------------- ------------ ------------------------------- --- ----------------------- ------------------------ --------------------------------- 
85     block_9_depthwise_BN (ScaleBias, BatchNormalization)           [b:1,h:14,w:14,c:384]    768/3,072                  150,528               block_9_depthwise   | +12,288(+400.0%)        +527,232(+350.3%)        Conv2D_[52]                       
------ -------------------------------------------------------------- ------------------------ --------------------- ------------ ------------------------------- --- ----------------------- ------------------------ --------------------------------- 
86     block_9_depthwise_relu (Nonlinearity, ReLU)                    [b:1,h:14,w:14,c:384]                                75,264            block_9_depthwise_BN   |                         +75,264(+100.0%)         Nonlinearity_[53]                 
------ -------------------------------------------------------------- ------------------------ --------------------- ------------ ------------------------------- --- ----------------------- ------------------------ --------------------------------- 
87     block_9_project (Conv2D, Conv2D)                               [b:1,h:14,w:14,c:64]     24,576/98,304            4,816,896          block_9_depthwise_relu   | -98,304(-100.0%)        -4,816,896(-100.0%)      
------ -------------------------------------------------------------- ------------------------ --------------------- ------------ ------------------------------- --- ----------------------- ------------------------ --------------------------------- 
88     block_9_project_BN (ScaleBias, BatchNormalization)             [b:1,h:14,w:14,c:64]     128/512                     25,088                 block_9_project   | +98,048(+19150.0%)      +4,791,872(+19100.3%)    Conv2D_[54]                       
------ -------------------------------------------------------------- ------------------------ --------------------- ------------ ------------------------------- --- ----------------------- ------------------------ --------------------------------- 
89     block_9_add (Eltwise, Add)                                     [b:1,h:14,w:14,c:64]                                 12,544                     block_8_add   |                                                  Eltwise/add_[55]                  
                                                                                                                                               block_9_project_BN   | 
------ -------------------------------------------------------------- ------------------------ --------------------- ------------ ------------------------------- --- ----------------------- ------------------------ --------------------------------- 
90     block_10_expand (Conv2D, Conv2D)                               [b:1,h:14,w:14,c:384]    24,576/98,304            4,816,896                     block_9_add   | -98,304(-100.0%)        -4,816,896(-100.0%)      
------ -------------------------------------------------------------- ------------------------ --------------------- ------------ ------------------------------- --- ----------------------- ------------------------ --------------------------------- 
91     block_10_expand_BN (ScaleBias, BatchNormalization)             [b:1,h:14,w:14,c:384]    768/3,072                  150,528                 block_10_expand   | +96,768(+3150.0%)       +4,666,752(+3100.3%)     Conv2D_[56]                       
------ -------------------------------------------------------------- ------------------------ --------------------- ------------ ------------------------------- --- ----------------------- ------------------------ --------------------------------- 
92     block_10_expand_relu (Nonlinearity, ReLU)                      [b:1,h:14,w:14,c:384]                                75,264              block_10_expand_BN   |                         +75,264(+100.0%)         Nonlinearity_[57]                 
------ -------------------------------------------------------------- ------------------------ --------------------- ------------ ------------------------------- --- ----------------------- ------------------------ --------------------------------- 
93     block_10_depthwise (Conv2D, DepthwiseConv2D)                   [b:1,h:14,w:14,c:384]    3,456/13,824               677,376            block_10_expand_relu   | -13,824(-100.0%)        -677,376(-100.0%)        
------ -------------------------------------------------------------- ------------------------ --------------------- ------------ ------------------------------- --- ----------------------- ------------------------ --------------------------------- 
94     block_10_depthwise_BN (ScaleBias, BatchNormalization)          [b:1,h:14,w:14,c:384]    768/3,072                  150,528              block_10_depthwise   | +12,288(+400.0%)        +527,232(+350.3%)        Conv2D_[58]                       
------ -------------------------------------------------------------- ------------------------ --------------------- ------------ ------------------------------- --- ----------------------- ------------------------ --------------------------------- 
95     block_10_depthwise_relu (Nonlinearity, ReLU)                   [b:1,h:14,w:14,c:384]                                75,264           block_10_depthwise_BN   |                         +75,264(+100.0%)         Nonlinearity_[59]                 
------ -------------------------------------------------------------- ------------------------ --------------------- ------------ ------------------------------- --- ----------------------- ------------------------ --------------------------------- 
96     block_10_project (Conv2D, Conv2D)                              [b:1,h:14,w:14,c:96]     36,864/147,456           7,225,344         block_10_depthwise_relu   | -147,456(-100.0%)       -7,225,344(-100.0%)      
------ -------------------------------------------------------------- ------------------------ --------------------- ------------ ------------------------------- --- ----------------------- ------------------------ --------------------------------- 
97     block_10_project_BN (ScaleBias, BatchNormalization)            [b:1,h:14,w:14,c:96]     192/768                     37,632                block_10_project   | +147,072(+19150.0%)     +7,187,808(+19100.3%)    Conv2D_[60]                       
------ -------------------------------------------------------------- ------------------------ --------------------- ------------ ------------------------------- --- ----------------------- ------------------------ --------------------------------- 
98     block_11_expand (Conv2D, Conv2D)                               [b:1,h:14,w:14,c:576]    55,296/221,184          10,838,016             block_10_project_BN   | -221,184(-100.0%)       -10,838,016(-100.0%)     
------ -------------------------------------------------------------- ------------------------ --------------------- ------------ ------------------------------- --- ----------------------- ------------------------ --------------------------------- 
99     block_11_expand_BN (ScaleBias, BatchNormalization)             [b:1,h:14,w:14,c:576]    1,152/4,608                225,792                 block_11_expand   | +218,880(+4750.0%)      +10,612,800(+4700.3%)    Conv2D_[61]                       
------ -------------------------------------------------------------- ------------------------ --------------------- ------------ ------------------------------- --- ----------------------- ------------------------ --------------------------------- 
100    block_11_expand_relu (Nonlinearity, ReLU)                      [b:1,h:14,w:14,c:576]                               112,896              block_11_expand_BN   |                         +112,896(+100.0%)        Nonlinearity_[62]                 
------ -------------------------------------------------------------- ------------------------ --------------------- ------------ ------------------------------- --- ----------------------- ------------------------ --------------------------------- 
101    block_11_depthwise (Conv2D, DepthwiseConv2D)                   [b:1,h:14,w:14,c:576]    5,184/20,736             1,016,064            block_11_expand_relu   | -20,736(-100.0%)        -1,016,064(-100.0%)      
------ -------------------------------------------------------------- ------------------------ --------------------- ------------ ------------------------------- --- ----------------------- ------------------------ --------------------------------- 
102    block_11_depthwise_BN (ScaleBias, BatchNormalization)          [b:1,h:14,w:14,c:576]    1,152/4,608                225,792              block_11_depthwise   | +18,432(+400.0%)        +790,848(+350.3%)        Conv2D_[63]                       
------ -------------------------------------------------------------- ------------------------ --------------------- ------------ ------------------------------- --- ----------------------- ------------------------ --------------------------------- 
103    block_11_depthwise_relu (Nonlinearity, ReLU)                   [b:1,h:14,w:14,c:576]                               112,896           block_11_depthwise_BN   |                         +112,896(+100.0%)        Nonlinearity_[64]                 
------ -------------------------------------------------------------- ------------------------ --------------------- ------------ ------------------------------- --- ----------------------- ------------------------ --------------------------------- 
104    block_11_project (Conv2D, Conv2D)                              [b:1,h:14,w:14,c:96]     55,296/221,184          10,838,016         block_11_depthwise_relu   | -221,184(-100.0%)       -10,838,016(-100.0%)     
------ -------------------------------------------------------------- ------------------------ --------------------- ------------ ------------------------------- --- ----------------------- ------------------------ --------------------------------- 
105    block_11_project_BN (ScaleBias, BatchNormalization)            [b:1,h:14,w:14,c:96]     192/768                     37,632                block_11_project   | +220,800(+28750.0%)     +10,800,480(+28700.3%)   Conv2D_[65]                       
------ -------------------------------------------------------------- ------------------------ --------------------- ------------ ------------------------------- --- ----------------------- ------------------------ --------------------------------- 
106    block_11_add (Eltwise, Add)                                    [b:1,h:14,w:14,c:96]                                 18,816             block_10_project_BN   |                                                  Eltwise/add_[66]                  
                                                                                                                                              block_11_project_BN   | 
------ -------------------------------------------------------------- ------------------------ --------------------- ------------ ------------------------------- --- ----------------------- ------------------------ --------------------------------- 
107    block_12_expand (Conv2D, Conv2D)                               [b:1,h:14,w:14,c:576]    55,296/221,184          10,838,016                    block_11_add   | -221,184(-100.0%)       -10,838,016(-100.0%)     
------ -------------------------------------------------------------- ------------------------ --------------------- ------------ ------------------------------- --- ----------------------- ------------------------ --------------------------------- 
108    block_12_expand_BN (ScaleBias, BatchNormalization)             [b:1,h:14,w:14,c:576]    1,152/4,608                225,792                 block_12_expand   | +218,880(+4750.0%)      +10,612,800(+4700.3%)    Conv2D_[67]                       
------ -------------------------------------------------------------- ------------------------ --------------------- ------------ ------------------------------- --- ----------------------- ------------------------ --------------------------------- 
109    block_12_expand_relu (Nonlinearity, ReLU)                      [b:1,h:14,w:14,c:576]                               112,896              block_12_expand_BN   |                         +112,896(+100.0%)        Nonlinearity_[68]                 
------ -------------------------------------------------------------- ------------------------ --------------------- ------------ ------------------------------- --- ----------------------- ------------------------ --------------------------------- 
110    block_12_depthwise (Conv2D, DepthwiseConv2D)                   [b:1,h:14,w:14,c:576]    5,184/20,736             1,016,064            block_12_expand_relu   | -20,736(-100.0%)        -1,016,064(-100.0%)      
------ -------------------------------------------------------------- ------------------------ --------------------- ------------ ------------------------------- --- ----------------------- ------------------------ --------------------------------- 
111    block_12_depthwise_BN (ScaleBias, BatchNormalization)          [b:1,h:14,w:14,c:576]    1,152/4,608                225,792              block_12_depthwise   | +18,432(+400.0%)        +790,848(+350.3%)        Conv2D_[69]                       
------ -------------------------------------------------------------- ------------------------ --------------------- ------------ ------------------------------- --- ----------------------- ------------------------ --------------------------------- 
112    block_12_depthwise_relu (Nonlinearity, ReLU)                   [b:1,h:14,w:14,c:576]                               112,896           block_12_depthwise_BN   |                         +112,896(+100.0%)        Nonlinearity_[70]                 
------ -------------------------------------------------------------- ------------------------ --------------------- ------------ ------------------------------- --- ----------------------- ------------------------ --------------------------------- 
113    block_12_project (Conv2D, Conv2D)                              [b:1,h:14,w:14,c:96]     55,296/221,184          10,838,016         block_12_depthwise_relu   | -221,184(-100.0%)       -10,838,016(-100.0%)     
------ -------------------------------------------------------------- ------------------------ --------------------- ------------ ------------------------------- --- ----------------------- ------------------------ --------------------------------- 
114    block_12_project_BN (ScaleBias, BatchNormalization)            [b:1,h:14,w:14,c:96]     192/768                     37,632                block_12_project   | +220,800(+28750.0%)     +10,800,480(+28700.3%)   Conv2D_[71]                       
------ -------------------------------------------------------------- ------------------------ --------------------- ------------ ------------------------------- --- ----------------------- ------------------------ --------------------------------- 
115    block_12_add (Eltwise, Add)                                    [b:1,h:14,w:14,c:96]                                 18,816                    block_11_add   |                                                  Eltwise/add_[72]                  
                                                                                                                                              block_12_project_BN   | 
------ -------------------------------------------------------------- ------------------------ --------------------- ------------ ------------------------------- --- ----------------------- ------------------------ --------------------------------- 
116    block_13_expand (Conv2D, Conv2D)                               [b:1,h:14,w:14,c:576]    55,296/221,184          10,838,016                    block_12_add   | -221,184(-100.0%)       -10,838,016(-100.0%)     
------ -------------------------------------------------------------- ------------------------ --------------------- ------------ ------------------------------- --- ----------------------- ------------------------ --------------------------------- 
117    block_13_expand_BN (ScaleBias, BatchNormalization)             [b:1,h:14,w:14,c:576]    1,152/4,608                225,792                 block_13_expand   | +218,880(+4750.0%)      +10,612,800(+4700.3%)    Conv2D_[73]                       
------ -------------------------------------------------------------- ------------------------ --------------------- ------------ ------------------------------- --- ----------------------- ------------------------ --------------------------------- 
118    block_13_expand_relu (Nonlinearity, ReLU)                      [b:1,h:14,w:14,c:576]                               112,896              block_13_expand_BN   |                         +112,896(+100.0%)        Nonlinearity_[74]                 
------ -------------------------------------------------------------- ------------------------ --------------------- ------------ ------------------------------- --- ----------------------- ------------------------ --------------------------------- 
119    block_13_pad (Pad, ZeroPadding2D)                              [b:1,h:15,w:15,c:576]                                                  block_13_expand_relu   | +23,040(+100.0%)        +254,592(+100.0%)        Conv2D_[75]                       
------ -------------------------------------------------------------- ------------------------ --------------------- ------------ ------------------------------- --- ----------------------- ------------------------ --------------------------------- 
120    block_13_depthwise (Conv2D, DepthwiseConv2D)                   [b:1,h:7,w:7,c:576]      5,184/20,736               254,016                    block_13_pad   | -20,736(-100.0%)        -254,016(-100.0%)        
------ -------------------------------------------------------------- ------------------------ --------------------- ------------ ------------------------------- --- ----------------------- ------------------------ --------------------------------- 
121    block_13_depthwise_BN (ScaleBias, BatchNormalization)          [b:1,h:7,w:7,c:576]      1,152/4,608                 56,448              block_13_depthwise   | -4,608(-100.0%)         -56,448(-100.0%)         
------ -------------------------------------------------------------- ------------------------ --------------------- ------------ ------------------------------- --- ----------------------- ------------------------ --------------------------------- 
122    block_13_depthwise_relu (Nonlinearity, ReLU)                   [b:1,h:7,w:7,c:576]                                  28,224           block_13_depthwise_BN   |                         +28,224(+100.0%)         Nonlinearity_[76]                 
------ -------------------------------------------------------------- ------------------------ --------------------- ------------ ------------------------------- --- ----------------------- ------------------------ --------------------------------- 
123    block_13_project (Conv2D, Conv2D)                              [b:1,h:7,w:7,c:160]      92,160/368,640           4,515,840         block_13_depthwise_relu   | -368,640(-100.0%)       -4,515,840(-100.0%)      
------ -------------------------------------------------------------- ------------------------ --------------------- ------------ ------------------------------- --- ----------------------- ------------------------ --------------------------------- 
124    block_13_project_BN (ScaleBias, BatchNormalization)            [b:1,h:7,w:7,c:160]      320/1,280                   15,680                block_13_project   | +368,000(+28750.0%)     +4,500,320(+28701.0%)    Conv2D_[77]                       
------ -------------------------------------------------------------- ------------------------ --------------------- ------------ ------------------------------- --- ----------------------- ------------------------ --------------------------------- 
125    block_14_expand (Conv2D, Conv2D)                               [b:1,h:7,w:7,c:960]      153,600/614,400          7,526,400             block_13_project_BN   | -614,400(-100.0%)       -7,526,400(-100.0%)      
------ -------------------------------------------------------------- ------------------------ --------------------- ------------ ------------------------------- --- ----------------------- ------------------------ --------------------------------- 
126    block_14_expand_BN (ScaleBias, BatchNormalization)             [b:1,h:7,w:7,c:960]      1,920/7,680                 94,080                 block_14_expand   | +610,560(+7950.0%)      +7,433,280(+7901.0%)     Conv2D_[78]                       
------ -------------------------------------------------------------- ------------------------ --------------------- ------------ ------------------------------- --- ----------------------- ------------------------ --------------------------------- 
127    block_14_expand_relu (Nonlinearity, ReLU)                      [b:1,h:7,w:7,c:960]                                  47,040              block_14_expand_BN   |                         +47,040(+100.0%)         Nonlinearity_[79]                 
------ -------------------------------------------------------------- ------------------------ --------------------- ------------ ------------------------------- --- ----------------------- ------------------------ --------------------------------- 
128    block_14_depthwise (Conv2D, DepthwiseConv2D)                   [b:1,h:7,w:7,c:960]      8,640/34,560               423,360            block_14_expand_relu   | -34,560(-100.0%)        -423,360(-100.0%)        
------ -------------------------------------------------------------- ------------------------ --------------------- ------------ ------------------------------- --- ----------------------- ------------------------ --------------------------------- 
129    block_14_depthwise_BN (ScaleBias, BatchNormalization)          [b:1,h:7,w:7,c:960]      1,920/7,680                 94,080              block_14_depthwise   | +30,720(+400.0%)        +330,240(+351.0%)        Conv2D_[80]                       
------ -------------------------------------------------------------- ------------------------ --------------------- ------------ ------------------------------- --- ----------------------- ------------------------ --------------------------------- 
130    block_14_depthwise_relu (Nonlinearity, ReLU)                   [b:1,h:7,w:7,c:960]                                  47,040           block_14_depthwise_BN   |                         +47,040(+100.0%)         Nonlinearity_[81]                 
------ -------------------------------------------------------------- ------------------------ --------------------- ------------ ------------------------------- --- ----------------------- ------------------------ --------------------------------- 
131    block_14_project (Conv2D, Conv2D)                              [b:1,h:7,w:7,c:160]      153,600/614,400          7,526,400         block_14_depthwise_relu   | -614,400(-100.0%)       -7,526,400(-100.0%)      
------ -------------------------------------------------------------- ------------------------ --------------------- ------------ ------------------------------- --- ----------------------- ------------------------ --------------------------------- 
132    block_14_project_BN (ScaleBias, BatchNormalization)            [b:1,h:7,w:7,c:160]      320/1,280                   15,680                block_14_project   | +613,760(+47950.0%)     +7,510,880(+47901.0%)    Conv2D_[82]                       
------ -------------------------------------------------------------- ------------------------ --------------------- ------------ ------------------------------- --- ----------------------- ------------------------ --------------------------------- 
133    block_14_add (Eltwise, Add)                                    [b:1,h:7,w:7,c:160]                                   7,840             block_13_project_BN   |                                                  Eltwise/add_[83]                  
                                                                                                                                              block_14_project_BN   | 
------ -------------------------------------------------------------- ------------------------ --------------------- ------------ ------------------------------- --- ----------------------- ------------------------ --------------------------------- 
134    block_15_expand (Conv2D, Conv2D)                               [b:1,h:7,w:7,c:960]      153,600/614,400          7,526,400                    block_14_add   | -614,400(-100.0%)       -7,526,400(-100.0%)      
------ -------------------------------------------------------------- ------------------------ --------------------- ------------ ------------------------------- --- ----------------------- ------------------------ --------------------------------- 
135    block_15_expand_BN (ScaleBias, BatchNormalization)             [b:1,h:7,w:7,c:960]      1,920/7,680                 94,080                 block_15_expand   | +610,560(+7950.0%)      +7,433,280(+7901.0%)     Conv2D_[84]                       
------ -------------------------------------------------------------- ------------------------ --------------------- ------------ ------------------------------- --- ----------------------- ------------------------ --------------------------------- 
136    block_15_expand_relu (Nonlinearity, ReLU)                      [b:1,h:7,w:7,c:960]                                  47,040              block_15_expand_BN   |                         +47,040(+100.0%)         Nonlinearity_[85]                 
------ -------------------------------------------------------------- ------------------------ --------------------- ------------ ------------------------------- --- ----------------------- ------------------------ --------------------------------- 
137    block_15_depthwise (Conv2D, DepthwiseConv2D)                   [b:1,h:7,w:7,c:960]      8,640/34,560               423,360            block_15_expand_relu   | -34,560(-100.0%)        -423,360(-100.0%)        
------ -------------------------------------------------------------- ------------------------ --------------------- ------------ ------------------------------- --- ----------------------- ------------------------ --------------------------------- 
138    block_15_depthwise_BN (ScaleBias, BatchNormalization)          [b:1,h:7,w:7,c:960]      1,920/7,680                 94,080              block_15_depthwise   | +30,720(+400.0%)        +330,240(+351.0%)        Conv2D_[86]                       
------ -------------------------------------------------------------- ------------------------ --------------------- ------------ ------------------------------- --- ----------------------- ------------------------ --------------------------------- 
139    block_15_depthwise_relu (Nonlinearity, ReLU)                   [b:1,h:7,w:7,c:960]                                  47,040           block_15_depthwise_BN   |                         +47,040(+100.0%)         Nonlinearity_[87]                 
------ -------------------------------------------------------------- ------------------------ --------------------- ------------ ------------------------------- --- ----------------------- ------------------------ --------------------------------- 
140    block_15_project (Conv2D, Conv2D)                              [b:1,h:7,w:7,c:160]      153,600/614,400          7,526,400         block_15_depthwise_relu   | -614,400(-100.0%)       -7,526,400(-100.0%)      
------ -------------------------------------------------------------- ------------------------ --------------------- ------------ ------------------------------- --- ----------------------- ------------------------ --------------------------------- 
141    block_15_project_BN (ScaleBias, BatchNormalization)            [b:1,h:7,w:7,c:160]      320/1,280                   15,680                block_15_project   | +613,760(+47950.0%)     +7,510,880(+47901.0%)    Conv2D_[88]                       
------ -------------------------------------------------------------- ------------------------ --------------------- ------------ ------------------------------- --- ----------------------- ------------------------ --------------------------------- 
142    block_15_add (Eltwise, Add)                                    [b:1,h:7,w:7,c:160]                                   7,840                    block_14_add   |                                                  Eltwise/add_[89]                  
                                                                                                                                              block_15_project_BN   | 
------ -------------------------------------------------------------- ------------------------ --------------------- ------------ ------------------------------- --- ----------------------- ------------------------ --------------------------------- 
143    block_16_expand (Conv2D, Conv2D)                               [b:1,h:7,w:7,c:960]      153,600/614,400          7,526,400                    block_15_add   | -614,400(-100.0%)       -7,526,400(-100.0%)      
------ -------------------------------------------------------------- ------------------------ --------------------- ------------ ------------------------------- --- ----------------------- ------------------------ --------------------------------- 
144    block_16_expand_BN (ScaleBias, BatchNormalization)             [b:1,h:7,w:7,c:960]      1,920/7,680                 94,080                 block_16_expand   | +610,560(+7950.0%)      +7,433,280(+7901.0%)     Conv2D_[90]                       
------ -------------------------------------------------------------- ------------------------ --------------------- ------------ ------------------------------- --- ----------------------- ------------------------ --------------------------------- 
145    block_16_expand_relu (Nonlinearity, ReLU)                      [b:1,h:7,w:7,c:960]                                  47,040              block_16_expand_BN   |                         +47,040(+100.0%)         Nonlinearity_[91]                 
------ -------------------------------------------------------------- ------------------------ --------------------- ------------ ------------------------------- --- ----------------------- ------------------------ --------------------------------- 
146    block_16_depthwise (Conv2D, DepthwiseConv2D)                   [b:1,h:7,w:7,c:960]      8,640/34,560               423,360            block_16_expand_relu   | -34,560(-100.0%)        -423,360(-100.0%)        
------ -------------------------------------------------------------- ------------------------ --------------------- ------------ ------------------------------- --- ----------------------- ------------------------ --------------------------------- 
147    block_16_depthwise_BN (ScaleBias, BatchNormalization)          [b:1,h:7,w:7,c:960]      1,920/7,680                 94,080              block_16_depthwise   | +30,720(+400.0%)        +330,240(+351.0%)        Conv2D_[92]                       
------ -------------------------------------------------------------- ------------------------ --------------------- ------------ ------------------------------- --- ----------------------- ------------------------ --------------------------------- 
148    block_16_depthwise_relu (Nonlinearity, ReLU)                   [b:1,h:7,w:7,c:960]                                  47,040           block_16_depthwise_BN   |                         +47,040(+100.0%)         Nonlinearity_[93]                 
------ -------------------------------------------------------------- ------------------------ --------------------- ------------ ------------------------------- --- ----------------------- ------------------------ --------------------------------- 
149    block_16_project (Conv2D, Conv2D)                              [b:1,h:7,w:7,c:320]      307,200/1,228,800       15,052,800         block_16_depthwise_relu   | -1,228,800(-100.0%)     -15,052,800(-100.0%)     
------ -------------------------------------------------------------- ------------------------ --------------------- ------------ ------------------------------- --- ----------------------- ------------------------ --------------------------------- 
150    block_16_project_BN (ScaleBias, BatchNormalization)            [b:1,h:7,w:7,c:320]      640/2,560                   31,360                block_16_project   | +1,227,520(+47950.0%)   +15,021,760(+47901.0%)   Conv2D_[94]                       
------ -------------------------------------------------------------- ------------------------ --------------------- ------------ ------------------------------- --- ----------------------- ------------------------ --------------------------------- 
151    Conv_1 (Conv2D, Conv2D)                                        [b:1,h:7,w:7,c:1280]     409,600/1,638,400       20,070,400             block_16_project_BN   | -1,638,400(-100.0%)     -20,070,400(-100.0%)     
------ -------------------------------------------------------------- ------------------------ --------------------- ------------ ------------------------------- --- ----------------------- ------------------------ --------------------------------- 
152    Conv_1_bn (ScaleBias, BatchNormalization)                      [b:1,h:7,w:7,c:1280]     2,560/10,240               125,440                          Conv_1   | +1,633,280(+15950.0%)   +19,946,240(+15901.0%)   Conv2D_[95]                       
------ -------------------------------------------------------------- ------------------------ --------------------- ------------ ------------------------------- --- ----------------------- ------------------------ --------------------------------- 
153    out_relu (Nonlinearity, ReLU)                                  [b:1,h:7,w:7,c:1280]                                 62,720                       Conv_1_bn   |                         +62,720(+100.0%)         Nonlinearity_[96]                 
------ -------------------------------------------------------------- ------------------------ --------------------- ------------ ------------------------------- --- ----------------------- ------------------------ --------------------------------- 
154    global_average_pooling2d_pool (Pool, GlobalAveragePooling2D)   [b:1,h:1,w:1,c:1280]                                 62,720                        out_relu   |                                                  Pool_[97]                         
       global_average_pooling2d (Reshape, GlobalAveragePooling2D)     [b:1,c:1280]                                                  global_average_pooling2d_pool   |                                                  
------ -------------------------------------------------------------- ------------------------ --------------------- ------------ ------------------------------- --- ----------------------- ------------------------ --------------------------------- 
155    predictions_dense (Dense, Dense)                               [b:1,c:1000]             1,281,000/5,124,000      1,281,000        global_average_pooling2d   |                         +15,000(+1.2%)           Dense_/Nonlinearity_[o][98, 99]   
       predictions (Nonlinearity, Dense)                              [b:1,c:1000]                                         15,000               predictions_dense   |                         -15,000(-100.0%)         
------ -------------------------------------------------------------- ------------------------ --------------------- ------------ ------------------------------- --- ----------------------- ------------------------ --------------------------------- 
model/c-model: macc=320,531,392/313,298,016 -7,233,376(-2.3%) weights=14,019,488/13,951,264 -68,224(-0.5%) activations=--/4,917,696 io=--/0



Generated C-graph summary
------------------------------------------------------------------------------------------------------------------------
model name            : customized_final_20251121_121825
c-name                : network
c-node #              : 100
c-array #             : 242
activations size      : 4917696 (1 segment)
weights size          : 13951264 (1 segment)
macc                  : 313298016
inputs                : ['input_1_output']
outputs               : ['predictions_output']

C-Arrays (242)
------ -------------------------------------- ----------------- ------------------------- ------------- --------- 
c_id   name (*_array)                         item/size         domain/mem-pool           c-type        comment   
------ -------------------------------------- ----------------- ------------------------- ------------- --------- 
0      Conv1_bias                             32/128            weights/weights           const float             
1      Conv1_output                           401408/1605632    activations/**default**   float                   
2      Conv1_relu_output                      401408/1605632    activations/**default**   float                   
3      Conv1_scratch0                         27/108            activations/**default**   float                   
4      Conv1_weights                          864/3456          weights/weights           const float             
5      Conv_1_bias                            1280/5120         weights/weights           const float             
6      Conv_1_output                          62720/250880      activations/**default**   float                   
7      Conv_1_scratch0                        320/1280          activations/**default**   float                   
8      Conv_1_weights                         409600/1638400    weights/weights           const float             
9      block_10_depthwise_bias                384/1536          weights/weights           const float             
10     block_10_depthwise_output              75264/301056      activations/**default**   float                   
11     block_10_depthwise_relu_output         75264/301056      activations/**default**   float                   
12     block_10_depthwise_weights             3456/13824        weights/weights           const float             
13     block_10_expand_bias                   384/1536          weights/weights           const float             
14     block_10_expand_output                 75264/301056      activations/**default**   float                   
15     block_10_expand_relu_output            75264/301056      activations/**default**   float                   
16     block_10_expand_scratch0               64/256            activations/**default**   float                   
17     block_10_expand_weights                24576/98304       weights/weights           const float             
18     block_10_project_bias                  96/384            weights/weights           const float             
19     block_10_project_output                18816/75264       activations/**default**   float                   
20     block_10_project_scratch0              384/1536          activations/**default**   float                   
21     block_10_project_weights               36864/147456      weights/weights           const float             
22     block_11_add_output                    18816/75264       activations/**default**   float                   
23     block_11_depthwise_bias                576/2304          weights/weights           const float             
24     block_11_depthwise_output              112896/451584     activations/**default**   float                   
25     block_11_depthwise_relu_output         112896/451584     activations/**default**   float                   
26     block_11_depthwise_weights             5184/20736        weights/weights           const float             
27     block_11_expand_bias                   576/2304          weights/weights           const float             
28     block_11_expand_output                 112896/451584     activations/**default**   float                   
29     block_11_expand_relu_output            112896/451584     activations/**default**   float                   
30     block_11_expand_scratch0               96/384            activations/**default**   float                   
31     block_11_expand_weights                55296/221184      weights/weights           const float             
32     block_11_project_bias                  96/384            weights/weights           const float             
33     block_11_project_output                18816/75264       activations/**default**   float                   
34     block_11_project_scratch0              576/2304          activations/**default**   float                   
35     block_11_project_weights               55296/221184      weights/weights           const float             
36     block_12_add_output                    18816/75264       activations/**default**   float                   
37     block_12_depthwise_bias                576/2304          weights/weights           const float             
38     block_12_depthwise_output              112896/451584     activations/**default**   float                   
39     block_12_depthwise_relu_output         112896/451584     activations/**default**   float                   
40     block_12_depthwise_weights             5184/20736        weights/weights           const float             
41     block_12_expand_bias                   576/2304          weights/weights           const float             
42     block_12_expand_output                 112896/451584     activations/**default**   float                   
43     block_12_expand_relu_output            112896/451584     activations/**default**   float                   
44     block_12_expand_scratch0               96/384            activations/**default**   float                   
45     block_12_expand_weights                55296/221184      weights/weights           const float             
46     block_12_project_bias                  96/384            weights/weights           const float             
47     block_12_project_output                18816/75264       activations/**default**   float                   
48     block_12_project_scratch0              576/2304          activations/**default**   float                   
49     block_12_project_weights               55296/221184      weights/weights           const float             
50     block_13_depthwise_bias                576/2304          weights/weights           const float             
51     block_13_depthwise_output              28224/112896      activations/**default**   float                   
52     block_13_depthwise_relu_output         28224/112896      activations/**default**   float                   
53     block_13_depthwise_weights             5184/20736        weights/weights           const float             
54     block_13_expand_bias                   576/2304          weights/weights           const float             
55     block_13_expand_output                 112896/451584     activations/**default**   float                   
56     block_13_expand_relu_output            112896/451584     activations/**default**   float                   
57     block_13_expand_scratch0               96/384            activations/**default**   float                   
58     block_13_expand_weights                55296/221184      weights/weights           const float             
59     block_13_project_bias                  160/640           weights/weights           const float             
60     block_13_project_output                7840/31360        activations/**default**   float                   
61     block_13_project_scratch0              576/2304          activations/**default**   float                   
62     block_13_project_weights               92160/368640      weights/weights           const float             
63     block_14_add_output                    7840/31360        activations/**default**   float                   
64     block_14_depthwise_bias                960/3840          weights/weights           const float             
65     block_14_depthwise_output              47040/188160      activations/**default**   float                   
66     block_14_depthwise_relu_output         47040/188160      activations/**default**   float                   
67     block_14_depthwise_weights             8640/34560        weights/weights           const float             
68     block_14_expand_bias                   960/3840          weights/weights           const float             
69     block_14_expand_output                 47040/188160      activations/**default**   float                   
70     block_14_expand_relu_output            47040/188160      activations/**default**   float                   
71     block_14_expand_scratch0               160/640           activations/**default**   float                   
72     block_14_expand_weights                153600/614400     weights/weights           const float             
73     block_14_project_bias                  160/640           weights/weights           const float             
74     block_14_project_output                7840/31360        activations/**default**   float                   
75     block_14_project_scratch0              960/3840          activations/**default**   float                   
76     block_14_project_weights               153600/614400     weights/weights           const float             
77     block_15_add_output                    7840/31360        activations/**default**   float                   
78     block_15_depthwise_bias                960/3840          weights/weights           const float             
79     block_15_depthwise_output              47040/188160      activations/**default**   float                   
80     block_15_depthwise_relu_output         47040/188160      activations/**default**   float                   
81     block_15_depthwise_weights             8640/34560        weights/weights           const float             
82     block_15_expand_bias                   960/3840          weights/weights           const float             
83     block_15_expand_output                 47040/188160      activations/**default**   float                   
84     block_15_expand_relu_output            47040/188160      activations/**default**   float                   
85     block_15_expand_scratch0               160/640           activations/**default**   float                   
86     block_15_expand_weights                153600/614400     weights/weights           const float             
87     block_15_project_bias                  160/640           weights/weights           const float             
88     block_15_project_output                7840/31360        activations/**default**   float                   
89     block_15_project_scratch0              960/3840          activations/**default**   float                   
90     block_15_project_weights               153600/614400     weights/weights           const float             
91     block_16_depthwise_bias                960/3840          weights/weights           const float             
92     block_16_depthwise_output              47040/188160      activations/**default**   float                   
93     block_16_depthwise_relu_output         47040/188160      activations/**default**   float                   
94     block_16_depthwise_weights             8640/34560        weights/weights           const float             
95     block_16_expand_bias                   960/3840          weights/weights           const float             
96     block_16_expand_output                 47040/188160      activations/**default**   float                   
97     block_16_expand_relu_output            47040/188160      activations/**default**   float                   
98     block_16_expand_scratch0               160/640           activations/**default**   float                   
99     block_16_expand_weights                153600/614400     weights/weights           const float             
100    block_16_project_bias                  320/1280          weights/weights           const float             
101    block_16_project_output                15680/62720       activations/**default**   float                   
102    block_16_project_scratch0              960/3840          activations/**default**   float                   
103    block_16_project_weights               307200/1228800    weights/weights           const float             
104    block_1_depthwise_bias                 96/384            weights/weights           const float             
105    block_1_depthwise_output               301056/1204224    activations/**default**   float                   
106    block_1_depthwise_relu_output          301056/1204224    activations/**default**   float                   
107    block_1_depthwise_weights              864/3456          weights/weights           const float             
108    block_1_expand_bias                    96/384            weights/weights           const float             
109    block_1_expand_output                  1204224/4816896   activations/**default**   float                   
110    block_1_expand_relu_output             1204224/4816896   activations/**default**   float                   
111    block_1_expand_scratch0                16/64             activations/**default**   float                   
112    block_1_expand_weights                 1536/6144         weights/weights           const float             
113    block_1_project_bias                   24/96             weights/weights           const float             
114    block_1_project_output                 75264/301056      activations/**default**   float                   
115    block_1_project_scratch0               96/384            activations/**default**   float                   
116    block_1_project_weights                2304/9216         weights/weights           const float             
117    block_2_add_output                     75264/301056      activations/**default**   float                   
118    block_2_depthwise_bias                 144/576           weights/weights           const float             
119    block_2_depthwise_output               451584/1806336    activations/**default**   float                   
120    block_2_depthwise_relu_output          451584/1806336    activations/**default**   float                   
121    block_2_depthwise_weights              1296/5184         weights/weights           const float             
122    block_2_expand_bias                    144/576           weights/weights           const float             
123    block_2_expand_output                  451584/1806336    activations/**default**   float                   
124    block_2_expand_relu_output             451584/1806336    activations/**default**   float                   
125    block_2_expand_scratch0                24/96             activations/**default**   float                   
126    block_2_expand_weights                 3456/13824        weights/weights           const float             
127    block_2_project_bias                   24/96             weights/weights           const float             
128    block_2_project_output                 75264/301056      activations/**default**   float                   
129    block_2_project_scratch0               144/576           activations/**default**   float                   
130    block_2_project_weights                3456/13824        weights/weights           const float             
131    block_3_depthwise_bias                 144/576           weights/weights           const float             
132    block_3_depthwise_output               112896/451584     activations/**default**   float                   
133    block_3_depthwise_relu_output          112896/451584     activations/**default**   float                   
134    block_3_depthwise_weights              1296/5184         weights/weights           const float             
135    block_3_expand_bias                    144/576           weights/weights           const float             
136    block_3_expand_output                  451584/1806336    activations/**default**   float                   
137    block_3_expand_relu_output             451584/1806336    activations/**default**   float                   
138    block_3_expand_scratch0                24/96             activations/**default**   float                   
139    block_3_expand_weights                 3456/13824        weights/weights           const float             
140    block_3_project_bias                   32/128            weights/weights           const float             
141    block_3_project_output                 25088/100352      activations/**default**   float                   
142    block_3_project_scratch0               144/576           activations/**default**   float                   
143    block_3_project_weights                4608/18432        weights/weights           const float             
144    block_4_add_output                     25088/100352      activations/**default**   float                   
145    block_4_depthwise_bias                 192/768           weights/weights           const float             
146    block_4_depthwise_output               150528/602112     activations/**default**   float                   
147    block_4_depthwise_relu_output          150528/602112     activations/**default**   float                   
148    block_4_depthwise_weights              1728/6912         weights/weights           const float             
149    block_4_expand_bias                    192/768           weights/weights           const float             
150    block_4_expand_output                  150528/602112     activations/**default**   float                   
151    block_4_expand_relu_output             150528/602112     activations/**default**   float                   
152    block_4_expand_scratch0                32/128            activations/**default**   float                   
153    block_4_expand_weights                 6144/24576        weights/weights           const float             
154    block_4_project_bias                   32/128            weights/weights           const float             
155    block_4_project_output                 25088/100352      activations/**default**   float                   
156    block_4_project_scratch0               192/768           activations/**default**   float                   
157    block_4_project_weights                6144/24576        weights/weights           const float             
158    block_5_add_output                     25088/100352      activations/**default**   float                   
159    block_5_depthwise_bias                 192/768           weights/weights           const float             
160    block_5_depthwise_output               150528/602112     activations/**default**   float                   
161    block_5_depthwise_relu_output          150528/602112     activations/**default**   float                   
162    block_5_depthwise_weights              1728/6912         weights/weights           const float             
163    block_5_expand_bias                    192/768           weights/weights           const float             
164    block_5_expand_output                  150528/602112     activations/**default**   float                   
165    block_5_expand_relu_output             150528/602112     activations/**default**   float                   
166    block_5_expand_scratch0                32/128            activations/**default**   float                   
167    block_5_expand_weights                 6144/24576        weights/weights           const float             
168    block_5_project_bias                   32/128            weights/weights           const float             
169    block_5_project_output                 25088/100352      activations/**default**   float                   
170    block_5_project_scratch0               192/768           activations/**default**   float                   
171    block_5_project_weights                6144/24576        weights/weights           const float             
172    block_6_depthwise_bias                 192/768           weights/weights           const float             
173    block_6_depthwise_output               37632/150528      activations/**default**   float                   
174    block_6_depthwise_relu_output          37632/150528      activations/**default**   float                   
175    block_6_depthwise_weights              1728/6912         weights/weights           const float             
176    block_6_expand_bias                    192/768           weights/weights           const float             
177    block_6_expand_output                  150528/602112     activations/**default**   float                   
178    block_6_expand_relu_output             150528/602112     activations/**default**   float                   
179    block_6_expand_scratch0                32/128            activations/**default**   float                   
180    block_6_expand_weights                 6144/24576        weights/weights           const float             
181    block_6_project_bias                   64/256            weights/weights           const float             
182    block_6_project_output                 12544/50176       activations/**default**   float                   
183    block_6_project_scratch0               192/768           activations/**default**   float                   
184    block_6_project_weights                12288/49152       weights/weights           const float             
185    block_7_add_output                     12544/50176       activations/**default**   float                   
186    block_7_depthwise_bias                 384/1536          weights/weights           const float             
187    block_7_depthwise_output               75264/301056      activations/**default**   float                   
188    block_7_depthwise_relu_output          75264/301056      activations/**default**   float                   
189    block_7_depthwise_weights              3456/13824        weights/weights           const float             
190    block_7_expand_bias                    384/1536          weights/weights           const float             
191    block_7_expand_output                  75264/301056      activations/**default**   float                   
192    block_7_expand_relu_output             75264/301056      activations/**default**   float                   
193    block_7_expand_scratch0                64/256            activations/**default**   float                   
194    block_7_expand_weights                 24576/98304       weights/weights           const float             
195    block_7_project_bias                   64/256            weights/weights           const float             
196    block_7_project_output                 12544/50176       activations/**default**   float                   
197    block_7_project_scratch0               384/1536          activations/**default**   float                   
198    block_7_project_weights                24576/98304       weights/weights           const float             
199    block_8_add_output                     12544/50176       activations/**default**   float                   
200    block_8_depthwise_bias                 384/1536          weights/weights           const float             
201    block_8_depthwise_output               75264/301056      activations/**default**   float                   
202    block_8_depthwise_relu_output          75264/301056      activations/**default**   float                   
203    block_8_depthwise_weights              3456/13824        weights/weights           const float             
204    block_8_expand_bias                    384/1536          weights/weights           const float             
205    block_8_expand_output                  75264/301056      activations/**default**   float                   
206    block_8_expand_relu_output             75264/301056      activations/**default**   float                   
207    block_8_expand_scratch0                64/256            activations/**default**   float                   
208    block_8_expand_weights                 24576/98304       weights/weights           const float             
209    block_8_project_bias                   64/256            weights/weights           const float             
210    block_8_project_output                 12544/50176       activations/**default**   float                   
211    block_8_project_scratch0               384/1536          activations/**default**   float                   
212    block_8_project_weights                24576/98304       weights/weights           const float             
213    block_9_add_output                     12544/50176       activations/**default**   float                   
214    block_9_depthwise_bias                 384/1536          weights/weights           const float             
215    block_9_depthwise_output               75264/301056      activations/**default**   float                   
216    block_9_depthwise_relu_output          75264/301056      activations/**default**   float                   
217    block_9_depthwise_weights              3456/13824        weights/weights           const float             
218    block_9_expand_bias                    384/1536          weights/weights           const float             
219    block_9_expand_output                  75264/301056      activations/**default**   float                   
220    block_9_expand_relu_output             75264/301056      activations/**default**   float                   
221    block_9_expand_scratch0                64/256            activations/**default**   float                   
222    block_9_expand_weights                 24576/98304       weights/weights           const float             
223    block_9_project_bias                   64/256            weights/weights           const float             
224    block_9_project_output                 12544/50176       activations/**default**   float                   
225    block_9_project_scratch0               384/1536          activations/**default**   float                   
226    block_9_project_weights                24576/98304       weights/weights           const float             
227    expanded_conv_depthwise_bias           32/128            weights/weights           const float             
228    expanded_conv_depthwise_output         401408/1605632    activations/**default**   float                   
229    expanded_conv_depthwise_relu_output    401408/1605632    activations/**default**   float                   
230    expanded_conv_depthwise_weights        288/1152          weights/weights           const float             
231    expanded_conv_project_bias             16/64             weights/weights           const float             
232    expanded_conv_project_output           200704/802816     activations/**default**   float                   
233    expanded_conv_project_scratch0         32/128            activations/**default**   float                   
234    expanded_conv_project_weights          512/2048          weights/weights           const float             
235    global_average_pooling2d_pool_output   1280/5120         activations/**default**   float                   
236    input_1_output                         150528/602112     activations/**default**   float         /input    
237    out_relu_output                        62720/250880      activations/**default**   float                   
238    predictions_dense_bias                 1000/4000         weights/weights           const float             
239    predictions_dense_output               1000/4000         activations/**default**   float                   
240    predictions_dense_weights              1280000/5120000   weights/weights           const float             
241    predictions_output                     1000/4000         activations/**default**   float         /output   
------ -------------------------------------- ----------------- ------------------------- ------------- --------- 

C-Layers (100)
------ ------------------------------- ----- --------------- ---------- --------- ----------------------------------------- ------------------------- 
c_id   name (*_layer)                  id    layer_type      macc       rom       tensors                                   shape (array id)          
------ ------------------------------- ----- --------------- ---------- --------- ----------------------------------------- ------------------------- 
0      Conv1                           2     Conv2D          10838048   3584      I: input_1_output                         f32(1x224x224x3) (236)    
                                                                                  S: Conv1_scratch0                                                   
                                                                                  W: Conv1_weights                          f32(32x3x3x3) (4)         
                                                                                  W: Conv1_bias                             f32(32) (0)               
                                                                                  O: Conv1_output                           f32(1x112x112x32) (1)     
------ ------------------------------- ----- --------------- ---------- --------- ----------------------------------------- ------------------------- 
1      Conv1_relu                      3     Nonlinearity    802816     0         I: Conv1_output                           f32(1x112x112x32) (1)     
                                                                                  O: Conv1_relu_output                      f32(1x112x112x32) (2)     
------ ------------------------------- ----- --------------- ---------- --------- ----------------------------------------- ------------------------- 
2      expanded_conv_depthwise         5     Conv2D          3612704    1280      I: Conv1_relu_output                      f32(1x112x112x32) (2)     
                                                                                  W: expanded_conv_depthwise_weights        f32(32x3x3x1) (230)       
                                                                                  W: expanded_conv_depthwise_bias           f32(32) (227)             
                                                                                  O: expanded_conv_depthwise_output         f32(1x112x112x32) (228)   
------ ------------------------------- ----- --------------- ---------- --------- ----------------------------------------- ------------------------- 
3      expanded_conv_depthwise_relu    6     Nonlinearity    802816     0         I: expanded_conv_depthwise_output         f32(1x112x112x32) (228)   
                                                                                  O: expanded_conv_depthwise_relu_output    f32(1x112x112x32) (229)   
------ ------------------------------- ----- --------------- ---------- --------- ----------------------------------------- ------------------------- 
4      expanded_conv_project           8     Conv2D          6422544    2112      I: expanded_conv_depthwise_relu_output    f32(1x112x112x32) (229)   
                                                                                  S: expanded_conv_project_scratch0                                   
                                                                                  W: expanded_conv_project_weights          f32(16x1x1x32) (234)      
                                                                                  W: expanded_conv_project_bias             f32(16) (231)             
                                                                                  O: expanded_conv_project_output           f32(1x112x112x16) (232)   
------ ------------------------------- ----- --------------- ---------- --------- ----------------------------------------- ------------------------- 
5      block_1_expand                  10    Conv2D          19267680   6528      I: expanded_conv_project_output           f32(1x112x112x16) (232)   
                                                                                  S: block_1_expand_scratch0                                          
                                                                                  W: block_1_expand_weights                 f32(96x1x1x16) (112)      
                                                                                  W: block_1_expand_bias                    f32(96) (108)             
                                                                                  O: block_1_expand_output                  f32(1x112x112x96) (109)   
------ ------------------------------- ----- --------------- ---------- --------- ----------------------------------------- ------------------------- 
6      block_1_expand_relu             11    Nonlinearity    2408448    0         I: block_1_expand_output                  f32(1x112x112x96) (109)   
                                                                                  O: block_1_expand_relu_output             f32(1x112x112x96) (110)   
------ ------------------------------- ----- --------------- ---------- --------- ----------------------------------------- ------------------------- 
7      block_1_depthwise               12    Conv2D          2709600    3840      I: block_1_expand_relu_output             f32(1x112x112x96) (110)   
                                                                                  W: block_1_depthwise_weights              f32(96x3x3x1) (107)       
                                                                                  W: block_1_depthwise_bias                 f32(96) (104)             
                                                                                  O: block_1_depthwise_output               f32(1x56x56x96) (105)     
------ ------------------------------- ----- --------------- ---------- --------- ----------------------------------------- ------------------------- 
8      block_1_depthwise_relu          15    Nonlinearity    602112     0         I: block_1_depthwise_output               f32(1x56x56x96) (105)     
                                                                                  O: block_1_depthwise_relu_output          f32(1x56x56x96) (106)     
------ ------------------------------- ----- --------------- ---------- --------- ----------------------------------------- ------------------------- 
9      block_1_project                 17    Conv2D          7225368    9312      I: block_1_depthwise_relu_output          f32(1x56x56x96) (106)     
                                                                                  S: block_1_project_scratch0                                         
                                                                                  W: block_1_project_weights                f32(24x1x1x96) (116)      
                                                                                  W: block_1_project_bias                   f32(24) (113)             
                                                                                  O: block_1_project_output                 f32(1x56x56x24) (114)     
------ ------------------------------- ----- --------------- ---------- --------- ----------------------------------------- ------------------------- 
10     block_2_expand                  19    Conv2D          10838160   14400     I: block_1_project_output                 f32(1x56x56x24) (114)     
                                                                                  S: block_2_expand_scratch0                                          
                                                                                  W: block_2_expand_weights                 f32(144x1x1x24) (126)     
                                                                                  W: block_2_expand_bias                    f32(144) (122)            
                                                                                  O: block_2_expand_output                  f32(1x56x56x144) (123)    
------ ------------------------------- ----- --------------- ---------- --------- ----------------------------------------- ------------------------- 
11     block_2_expand_relu             20    Nonlinearity    903168     0         I: block_2_expand_output                  f32(1x56x56x144) (123)    
                                                                                  O: block_2_expand_relu_output             f32(1x56x56x144) (124)    
------ ------------------------------- ----- --------------- ---------- --------- ----------------------------------------- ------------------------- 
12     block_2_depthwise               22    Conv2D          4064400    5760      I: block_2_expand_relu_output             f32(1x56x56x144) (124)    
                                                                                  W: block_2_depthwise_weights              f32(144x3x3x1) (121)      
                                                                                  W: block_2_depthwise_bias                 f32(144) (118)            
                                                                                  O: block_2_depthwise_output               f32(1x56x56x144) (119)    
------ ------------------------------- ----- --------------- ---------- --------- ----------------------------------------- ------------------------- 
13     block_2_depthwise_relu          23    Nonlinearity    903168     0         I: block_2_depthwise_output               f32(1x56x56x144) (119)    
                                                                                  O: block_2_depthwise_relu_output          f32(1x56x56x144) (120)    
------ ------------------------------- ----- --------------- ---------- --------- ----------------------------------------- ------------------------- 
14     block_2_project                 25    Conv2D          10838040   13920     I: block_2_depthwise_relu_output          f32(1x56x56x144) (120)    
                                                                                  S: block_2_project_scratch0                                         
                                                                                  W: block_2_project_weights                f32(24x1x1x144) (130)     
                                                                                  W: block_2_project_bias                   f32(24) (127)             
                                                                                  O: block_2_project_output                 f32(1x56x56x24) (128)     
------ ------------------------------- ----- --------------- ---------- --------- ----------------------------------------- ------------------------- 
15     block_2_add                     26    Eltwise/add     75264      0         I: block_1_project_output                 f32(1x56x56x24) (114)     
                                                                                  I: block_2_project_output                 f32(1x56x56x24) (114)     
                                                                                  O: block_2_add_output                     f32(1x56x56x24) (117)     
------ ------------------------------- ----- --------------- ---------- --------- ----------------------------------------- ------------------------- 
16     block_3_expand                  28    Conv2D          10838160   14400     I: block_2_add_output                     f32(1x56x56x24) (117)     
                                                                                  S: block_3_expand_scratch0                                          
                                                                                  W: block_3_expand_weights                 f32(144x1x1x24) (139)     
                                                                                  W: block_3_expand_bias                    f32(144) (135)            
                                                                                  O: block_3_expand_output                  f32(1x56x56x144) (136)    
------ ------------------------------- ----- --------------- ---------- --------- ----------------------------------------- ------------------------- 
17     block_3_expand_relu             29    Nonlinearity    903168     0         I: block_3_expand_output                  f32(1x56x56x144) (136)    
                                                                                  O: block_3_expand_relu_output             f32(1x56x56x144) (137)    
------ ------------------------------- ----- --------------- ---------- --------- ----------------------------------------- ------------------------- 
18     block_3_depthwise               30    Conv2D          1016208    5760      I: block_3_expand_relu_output             f32(1x56x56x144) (137)    
                                                                                  W: block_3_depthwise_weights              f32(144x3x3x1) (134)      
                                                                                  W: block_3_depthwise_bias                 f32(144) (131)            
                                                                                  O: block_3_depthwise_output               f32(1x28x28x144) (132)    
------ ------------------------------- ----- --------------- ---------- --------- ----------------------------------------- ------------------------- 
19     block_3_depthwise_relu          33    Nonlinearity    225792     0         I: block_3_depthwise_output               f32(1x28x28x144) (132)    
                                                                                  O: block_3_depthwise_relu_output          f32(1x28x28x144) (133)    
------ ------------------------------- ----- --------------- ---------- --------- ----------------------------------------- ------------------------- 
20     block_3_project                 35    Conv2D          3612704    18560     I: block_3_depthwise_relu_output          f32(1x28x28x144) (133)    
                                                                                  S: block_3_project_scratch0                                         
                                                                                  W: block_3_project_weights                f32(32x1x1x144) (143)     
                                                                                  W: block_3_project_bias                   f32(32) (140)             
                                                                                  O: block_3_project_output                 f32(1x28x28x32) (141)     
------ ------------------------------- ----- --------------- ---------- --------- ----------------------------------------- ------------------------- 
21     block_4_expand                  37    Conv2D          4817088    25344     I: block_3_project_output                 f32(1x28x28x32) (141)     
                                                                                  S: block_4_expand_scratch0                                          
                                                                                  W: block_4_expand_weights                 f32(192x1x1x32) (153)     
                                                                                  W: block_4_expand_bias                    f32(192) (149)            
                                                                                  O: block_4_expand_output                  f32(1x28x28x192) (150)    
------ ------------------------------- ----- --------------- ---------- --------- ----------------------------------------- ------------------------- 
22     block_4_expand_relu             38    Nonlinearity    301056     0         I: block_4_expand_output                  f32(1x28x28x192) (150)    
                                                                                  O: block_4_expand_relu_output             f32(1x28x28x192) (151)    
------ ------------------------------- ----- --------------- ---------- --------- ----------------------------------------- ------------------------- 
23     block_4_depthwise               40    Conv2D          1354944    7680      I: block_4_expand_relu_output             f32(1x28x28x192) (151)    
                                                                                  W: block_4_depthwise_weights              f32(192x3x3x1) (148)      
                                                                                  W: block_4_depthwise_bias                 f32(192) (145)            
                                                                                  O: block_4_depthwise_output               f32(1x28x28x192) (146)    
------ ------------------------------- ----- --------------- ---------- --------- ----------------------------------------- ------------------------- 
24     block_4_depthwise_relu          41    Nonlinearity    301056     0         I: block_4_depthwise_output               f32(1x28x28x192) (146)    
                                                                                  O: block_4_depthwise_relu_output          f32(1x28x28x192) (147)    
------ ------------------------------- ----- --------------- ---------- --------- ----------------------------------------- ------------------------- 
25     block_4_project                 43    Conv2D          4816928    24704     I: block_4_depthwise_relu_output          f32(1x28x28x192) (147)    
                                                                                  S: block_4_project_scratch0                                         
                                                                                  W: block_4_project_weights                f32(32x1x1x192) (157)     
                                                                                  W: block_4_project_bias                   f32(32) (154)             
                                                                                  O: block_4_project_output                 f32(1x28x28x32) (155)     
------ ------------------------------- ----- --------------- ---------- --------- ----------------------------------------- ------------------------- 
26     block_4_add                     44    Eltwise/add     25088      0         I: block_3_project_output                 f32(1x28x28x32) (141)     
                                                                                  I: block_4_project_output                 f32(1x28x28x32) (141)     
                                                                                  O: block_4_add_output                     f32(1x28x28x32) (144)     
------ ------------------------------- ----- --------------- ---------- --------- ----------------------------------------- ------------------------- 
27     block_5_expand                  46    Conv2D          4817088    25344     I: block_4_add_output                     f32(1x28x28x32) (144)     
                                                                                  S: block_5_expand_scratch0                                          
                                                                                  W: block_5_expand_weights                 f32(192x1x1x32) (167)     
                                                                                  W: block_5_expand_bias                    f32(192) (163)            
                                                                                  O: block_5_expand_output                  f32(1x28x28x192) (164)    
------ ------------------------------- ----- --------------- ---------- --------- ----------------------------------------- ------------------------- 
28     block_5_expand_relu             47    Nonlinearity    301056     0         I: block_5_expand_output                  f32(1x28x28x192) (164)    
                                                                                  O: block_5_expand_relu_output             f32(1x28x28x192) (165)    
------ ------------------------------- ----- --------------- ---------- --------- ----------------------------------------- ------------------------- 
29     block_5_depthwise               49    Conv2D          1354944    7680      I: block_5_expand_relu_output             f32(1x28x28x192) (165)    
                                                                                  W: block_5_depthwise_weights              f32(192x3x3x1) (162)      
                                                                                  W: block_5_depthwise_bias                 f32(192) (159)            
                                                                                  O: block_5_depthwise_output               f32(1x28x28x192) (160)    
------ ------------------------------- ----- --------------- ---------- --------- ----------------------------------------- ------------------------- 
30     block_5_depthwise_relu          50    Nonlinearity    301056     0         I: block_5_depthwise_output               f32(1x28x28x192) (160)    
                                                                                  O: block_5_depthwise_relu_output          f32(1x28x28x192) (161)    
------ ------------------------------- ----- --------------- ---------- --------- ----------------------------------------- ------------------------- 
31     block_5_project                 52    Conv2D          4816928    24704     I: block_5_depthwise_relu_output          f32(1x28x28x192) (161)    
                                                                                  S: block_5_project_scratch0                                         
                                                                                  W: block_5_project_weights                f32(32x1x1x192) (171)     
                                                                                  W: block_5_project_bias                   f32(32) (168)             
                                                                                  O: block_5_project_output                 f32(1x28x28x32) (169)     
------ ------------------------------- ----- --------------- ---------- --------- ----------------------------------------- ------------------------- 
32     block_5_add                     53    Eltwise/add     25088      0         I: block_4_add_output                     f32(1x28x28x32) (144)     
                                                                                  I: block_5_project_output                 f32(1x28x28x32) (144)     
                                                                                  O: block_5_add_output                     f32(1x28x28x32) (158)     
------ ------------------------------- ----- --------------- ---------- --------- ----------------------------------------- ------------------------- 
33     block_6_expand                  55    Conv2D          4817088    25344     I: block_5_add_output                     f32(1x28x28x32) (158)     
                                                                                  S: block_6_expand_scratch0                                          
                                                                                  W: block_6_expand_weights                 f32(192x1x1x32) (180)     
                                                                                  W: block_6_expand_bias                    f32(192) (176)            
                                                                                  O: block_6_expand_output                  f32(1x28x28x192) (177)    
------ ------------------------------- ----- --------------- ---------- --------- ----------------------------------------- ------------------------- 
34     block_6_expand_relu             56    Nonlinearity    301056     0         I: block_6_expand_output                  f32(1x28x28x192) (177)    
                                                                                  O: block_6_expand_relu_output             f32(1x28x28x192) (178)    
------ ------------------------------- ----- --------------- ---------- --------- ----------------------------------------- ------------------------- 
35     block_6_depthwise               57    Conv2D          338880     7680      I: block_6_expand_relu_output             f32(1x28x28x192) (178)    
                                                                                  W: block_6_depthwise_weights              f32(192x3x3x1) (175)      
                                                                                  W: block_6_depthwise_bias                 f32(192) (172)            
                                                                                  O: block_6_depthwise_output               f32(1x14x14x192) (173)    
------ ------------------------------- ----- --------------- ---------- --------- ----------------------------------------- ------------------------- 
36     block_6_depthwise_relu          60    Nonlinearity    75264      0         I: block_6_depthwise_output               f32(1x14x14x192) (173)    
                                                                                  O: block_6_depthwise_relu_output          f32(1x14x14x192) (174)    
------ ------------------------------- ----- --------------- ---------- --------- ----------------------------------------- ------------------------- 
37     block_6_project                 62    Conv2D          2408512    49408     I: block_6_depthwise_relu_output          f32(1x14x14x192) (174)    
                                                                                  S: block_6_project_scratch0                                         
                                                                                  W: block_6_project_weights                f32(64x1x1x192) (184)     
                                                                                  W: block_6_project_bias                   f32(64) (181)             
                                                                                  O: block_6_project_output                 f32(1x14x14x64) (182)     
------ ------------------------------- ----- --------------- ---------- --------- ----------------------------------------- ------------------------- 
38     block_7_expand                  64    Conv2D          4817280    99840     I: block_6_project_output                 f32(1x14x14x64) (182)     
                                                                                  S: block_7_expand_scratch0                                          
                                                                                  W: block_7_expand_weights                 f32(384x1x1x64) (194)     
                                                                                  W: block_7_expand_bias                    f32(384) (190)            
                                                                                  O: block_7_expand_output                  f32(1x14x14x384) (191)    
------ ------------------------------- ----- --------------- ---------- --------- ----------------------------------------- ------------------------- 
39     block_7_expand_relu             65    Nonlinearity    150528     0         I: block_7_expand_output                  f32(1x14x14x384) (191)    
                                                                                  O: block_7_expand_relu_output             f32(1x14x14x384) (192)    
------ ------------------------------- ----- --------------- ---------- --------- ----------------------------------------- ------------------------- 
40     block_7_depthwise               67    Conv2D          677760     15360     I: block_7_expand_relu_output             f32(1x14x14x384) (192)    
                                                                                  W: block_7_depthwise_weights              f32(384x3x3x1) (189)      
                                                                                  W: block_7_depthwise_bias                 f32(384) (186)            
                                                                                  O: block_7_depthwise_output               f32(1x14x14x384) (187)    
------ ------------------------------- ----- --------------- ---------- --------- ----------------------------------------- ------------------------- 
41     block_7_depthwise_relu          68    Nonlinearity    150528     0         I: block_7_depthwise_output               f32(1x14x14x384) (187)    
                                                                                  O: block_7_depthwise_relu_output          f32(1x14x14x384) (188)    
------ ------------------------------- ----- --------------- ---------- --------- ----------------------------------------- ------------------------- 
42     block_7_project                 70    Conv2D          4816960    98560     I: block_7_depthwise_relu_output          f32(1x14x14x384) (188)    
                                                                                  S: block_7_project_scratch0                                         
                                                                                  W: block_7_project_weights                f32(64x1x1x384) (198)     
                                                                                  W: block_7_project_bias                   f32(64) (195)             
                                                                                  O: block_7_project_output                 f32(1x14x14x64) (196)     
------ ------------------------------- ----- --------------- ---------- --------- ----------------------------------------- ------------------------- 
43     block_7_add                     71    Eltwise/add     12544      0         I: block_6_project_output                 f32(1x14x14x64) (182)     
                                                                                  I: block_7_project_output                 f32(1x14x14x64) (182)     
                                                                                  O: block_7_add_output                     f32(1x14x14x64) (185)     
------ ------------------------------- ----- --------------- ---------- --------- ----------------------------------------- ------------------------- 
44     block_8_expand                  73    Conv2D          4817280    99840     I: block_7_add_output                     f32(1x14x14x64) (185)     
                                                                                  S: block_8_expand_scratch0                                          
                                                                                  W: block_8_expand_weights                 f32(384x1x1x64) (208)     
                                                                                  W: block_8_expand_bias                    f32(384) (204)            
                                                                                  O: block_8_expand_output                  f32(1x14x14x384) (205)    
------ ------------------------------- ----- --------------- ---------- --------- ----------------------------------------- ------------------------- 
45     block_8_expand_relu             74    Nonlinearity    150528     0         I: block_8_expand_output                  f32(1x14x14x384) (205)    
                                                                                  O: block_8_expand_relu_output             f32(1x14x14x384) (206)    
------ ------------------------------- ----- --------------- ---------- --------- ----------------------------------------- ------------------------- 
46     block_8_depthwise               76    Conv2D          677760     15360     I: block_8_expand_relu_output             f32(1x14x14x384) (206)    
                                                                                  W: block_8_depthwise_weights              f32(384x3x3x1) (203)      
                                                                                  W: block_8_depthwise_bias                 f32(384) (200)            
                                                                                  O: block_8_depthwise_output               f32(1x14x14x384) (201)    
------ ------------------------------- ----- --------------- ---------- --------- ----------------------------------------- ------------------------- 
47     block_8_depthwise_relu          77    Nonlinearity    150528     0         I: block_8_depthwise_output               f32(1x14x14x384) (201)    
                                                                                  O: block_8_depthwise_relu_output          f32(1x14x14x384) (202)    
------ ------------------------------- ----- --------------- ---------- --------- ----------------------------------------- ------------------------- 
48     block_8_project                 79    Conv2D          4816960    98560     I: block_8_depthwise_relu_output          f32(1x14x14x384) (202)    
                                                                                  S: block_8_project_scratch0                                         
                                                                                  W: block_8_project_weights                f32(64x1x1x384) (212)     
                                                                                  W: block_8_project_bias                   f32(64) (209)             
                                                                                  O: block_8_project_output                 f32(1x14x14x64) (210)     
------ ------------------------------- ----- --------------- ---------- --------- ----------------------------------------- ------------------------- 
49     block_8_add                     80    Eltwise/add     12544      0         I: block_7_add_output                     f32(1x14x14x64) (185)     
                                                                                  I: block_8_project_output                 f32(1x14x14x64) (185)     
                                                                                  O: block_8_add_output                     f32(1x14x14x64) (199)     
------ ------------------------------- ----- --------------- ---------- --------- ----------------------------------------- ------------------------- 
50     block_9_expand                  82    Conv2D          4817280    99840     I: block_8_add_output                     f32(1x14x14x64) (199)     
                                                                                  S: block_9_expand_scratch0                                          
                                                                                  W: block_9_expand_weights                 f32(384x1x1x64) (222)     
                                                                                  W: block_9_expand_bias                    f32(384) (218)            
                                                                                  O: block_9_expand_output                  f32(1x14x14x384) (219)    
------ ------------------------------- ----- --------------- ---------- --------- ----------------------------------------- ------------------------- 
51     block_9_expand_relu             83    Nonlinearity    150528     0         I: block_9_expand_output                  f32(1x14x14x384) (219)    
                                                                                  O: block_9_expand_relu_output             f32(1x14x14x384) (220)    
------ ------------------------------- ----- --------------- ---------- --------- ----------------------------------------- ------------------------- 
52     block_9_depthwise               85    Conv2D          677760     15360     I: block_9_expand_relu_output             f32(1x14x14x384) (220)    
                                                                                  W: block_9_depthwise_weights              f32(384x3x3x1) (217)      
                                                                                  W: block_9_depthwise_bias                 f32(384) (214)            
                                                                                  O: block_9_depthwise_output               f32(1x14x14x384) (215)    
------ ------------------------------- ----- --------------- ---------- --------- ----------------------------------------- ------------------------- 
53     block_9_depthwise_relu          86    Nonlinearity    150528     0         I: block_9_depthwise_output               f32(1x14x14x384) (215)    
                                                                                  O: block_9_depthwise_relu_output          f32(1x14x14x384) (216)    
------ ------------------------------- ----- --------------- ---------- --------- ----------------------------------------- ------------------------- 
54     block_9_project                 88    Conv2D          4816960    98560     I: block_9_depthwise_relu_output          f32(1x14x14x384) (216)    
                                                                                  S: block_9_project_scratch0                                         
                                                                                  W: block_9_project_weights                f32(64x1x1x384) (226)     
                                                                                  W: block_9_project_bias                   f32(64) (223)             
                                                                                  O: block_9_project_output                 f32(1x14x14x64) (224)     
------ ------------------------------- ----- --------------- ---------- --------- ----------------------------------------- ------------------------- 
55     block_9_add                     89    Eltwise/add     12544      0         I: block_8_add_output                     f32(1x14x14x64) (199)     
                                                                                  I: block_9_project_output                 f32(1x14x14x64) (199)     
                                                                                  O: block_9_add_output                     f32(1x14x14x64) (213)     
------ ------------------------------- ----- --------------- ---------- --------- ----------------------------------------- ------------------------- 
56     block_10_expand                 91    Conv2D          4817280    99840     I: block_9_add_output                     f32(1x14x14x64) (213)     
                                                                                  S: block_10_expand_scratch0                                         
                                                                                  W: block_10_expand_weights                f32(384x1x1x64) (17)      
                                                                                  W: block_10_expand_bias                   f32(384) (13)             
                                                                                  O: block_10_expand_output                 f32(1x14x14x384) (14)     
------ ------------------------------- ----- --------------- ---------- --------- ----------------------------------------- ------------------------- 
57     block_10_expand_relu            92    Nonlinearity    150528     0         I: block_10_expand_output                 f32(1x14x14x384) (14)     
                                                                                  O: block_10_expand_relu_output            f32(1x14x14x384) (15)     
------ ------------------------------- ----- --------------- ---------- --------- ----------------------------------------- ------------------------- 
58     block_10_depthwise              94    Conv2D          677760     15360     I: block_10_expand_relu_output            f32(1x14x14x384) (15)     
                                                                                  W: block_10_depthwise_weights             f32(384x3x3x1) (12)       
                                                                                  W: block_10_depthwise_bias                f32(384) (9)              
                                                                                  O: block_10_depthwise_output              f32(1x14x14x384) (10)     
------ ------------------------------- ----- --------------- ---------- --------- ----------------------------------------- ------------------------- 
59     block_10_depthwise_relu         95    Nonlinearity    150528     0         I: block_10_depthwise_output              f32(1x14x14x384) (10)     
                                                                                  O: block_10_depthwise_relu_output         f32(1x14x14x384) (11)     
------ ------------------------------- ----- --------------- ---------- --------- ----------------------------------------- ------------------------- 
60     block_10_project                97    Conv2D          7225440    147840    I: block_10_depthwise_relu_output         f32(1x14x14x384) (11)     
                                                                                  S: block_10_project_scratch0                                        
                                                                                  W: block_10_project_weights               f32(96x1x1x384) (21)      
                                                                                  W: block_10_project_bias                  f32(96) (18)              
                                                                                  O: block_10_project_output                f32(1x14x14x96) (19)      
------ ------------------------------- ----- --------------- ---------- --------- ----------------------------------------- ------------------------- 
61     block_11_expand                 99    Conv2D          10838592   223488    I: block_10_project_output                f32(1x14x14x96) (19)      
                                                                                  S: block_11_expand_scratch0                                         
                                                                                  W: block_11_expand_weights                f32(576x1x1x96) (31)      
                                                                                  W: block_11_expand_bias                   f32(576) (27)             
                                                                                  O: block_11_expand_output                 f32(1x14x14x576) (28)     
------ ------------------------------- ----- --------------- ---------- --------- ----------------------------------------- ------------------------- 
62     block_11_expand_relu            100   Nonlinearity    225792     0         I: block_11_expand_output                 f32(1x14x14x576) (28)     
                                                                                  O: block_11_expand_relu_output            f32(1x14x14x576) (29)     
------ ------------------------------- ----- --------------- ---------- --------- ----------------------------------------- ------------------------- 
63     block_11_depthwise              102   Conv2D          1016640    23040     I: block_11_expand_relu_output            f32(1x14x14x576) (29)     
                                                                                  W: block_11_depthwise_weights             f32(576x3x3x1) (26)       
                                                                                  W: block_11_depthwise_bias                f32(576) (23)             
                                                                                  O: block_11_depthwise_output              f32(1x14x14x576) (24)     
------ ------------------------------- ----- --------------- ---------- --------- ----------------------------------------- ------------------------- 
64     block_11_depthwise_relu         103   Nonlinearity    225792     0         I: block_11_depthwise_output              f32(1x14x14x576) (24)     
                                                                                  O: block_11_depthwise_relu_output         f32(1x14x14x576) (25)     
------ ------------------------------- ----- --------------- ---------- --------- ----------------------------------------- ------------------------- 
65     block_11_project                105   Conv2D          10838112   221568    I: block_11_depthwise_relu_output         f32(1x14x14x576) (25)     
                                                                                  S: block_11_project_scratch0                                        
                                                                                  W: block_11_project_weights               f32(96x1x1x576) (35)      
                                                                                  W: block_11_project_bias                  f32(96) (32)              
                                                                                  O: block_11_project_output                f32(1x14x14x96) (33)      
------ ------------------------------- ----- --------------- ---------- --------- ----------------------------------------- ------------------------- 
66     block_11_add                    106   Eltwise/add     18816      0         I: block_10_project_output                f32(1x14x14x96) (19)      
                                                                                  I: block_11_project_output                f32(1x14x14x96) (19)      
                                                                                  O: block_11_add_output                    f32(1x14x14x96) (22)      
------ ------------------------------- ----- --------------- ---------- --------- ----------------------------------------- ------------------------- 
67     block_12_expand                 108   Conv2D          10838592   223488    I: block_11_add_output                    f32(1x14x14x96) (22)      
                                                                                  S: block_12_expand_scratch0                                         
                                                                                  W: block_12_expand_weights                f32(576x1x1x96) (45)      
                                                                                  W: block_12_expand_bias                   f32(576) (41)             
                                                                                  O: block_12_expand_output                 f32(1x14x14x576) (42)     
------ ------------------------------- ----- --------------- ---------- --------- ----------------------------------------- ------------------------- 
68     block_12_expand_relu            109   Nonlinearity    225792     0         I: block_12_expand_output                 f32(1x14x14x576) (42)     
                                                                                  O: block_12_expand_relu_output            f32(1x14x14x576) (43)     
------ ------------------------------- ----- --------------- ---------- --------- ----------------------------------------- ------------------------- 
69     block_12_depthwise              111   Conv2D          1016640    23040     I: block_12_expand_relu_output            f32(1x14x14x576) (43)     
                                                                                  W: block_12_depthwise_weights             f32(576x3x3x1) (40)       
                                                                                  W: block_12_depthwise_bias                f32(576) (37)             
                                                                                  O: block_12_depthwise_output              f32(1x14x14x576) (38)     
------ ------------------------------- ----- --------------- ---------- --------- ----------------------------------------- ------------------------- 
70     block_12_depthwise_relu         112   Nonlinearity    225792     0         I: block_12_depthwise_output              f32(1x14x14x576) (38)     
                                                                                  O: block_12_depthwise_relu_output         f32(1x14x14x576) (39)     
------ ------------------------------- ----- --------------- ---------- --------- ----------------------------------------- ------------------------- 
71     block_12_project                114   Conv2D          10838112   221568    I: block_12_depthwise_relu_output         f32(1x14x14x576) (39)     
                                                                                  S: block_12_project_scratch0                                        
                                                                                  W: block_12_project_weights               f32(96x1x1x576) (49)      
                                                                                  W: block_12_project_bias                  f32(96) (46)              
                                                                                  O: block_12_project_output                f32(1x14x14x96) (47)      
------ ------------------------------- ----- --------------- ---------- --------- ----------------------------------------- ------------------------- 
72     block_12_add                    115   Eltwise/add     18816      0         I: block_11_add_output                    f32(1x14x14x96) (22)      
                                                                                  I: block_12_project_output                f32(1x14x14x96) (22)      
                                                                                  O: block_12_add_output                    f32(1x14x14x96) (36)      
------ ------------------------------- ----- --------------- ---------- --------- ----------------------------------------- ------------------------- 
73     block_13_expand                 117   Conv2D          10838592   223488    I: block_12_add_output                    f32(1x14x14x96) (36)      
                                                                                  S: block_13_expand_scratch0                                         
                                                                                  W: block_13_expand_weights                f32(576x1x1x96) (58)      
                                                                                  W: block_13_expand_bias                   f32(576) (54)             
                                                                                  O: block_13_expand_output                 f32(1x14x14x576) (55)     
------ ------------------------------- ----- --------------- ---------- --------- ----------------------------------------- ------------------------- 
74     block_13_expand_relu            118   Nonlinearity    225792     0         I: block_13_expand_output                 f32(1x14x14x576) (55)     
                                                                                  O: block_13_expand_relu_output            f32(1x14x14x576) (56)     
------ ------------------------------- ----- --------------- ---------- --------- ----------------------------------------- ------------------------- 
75     block_13_depthwise              119   Conv2D          254592     23040     I: block_13_expand_relu_output            f32(1x14x14x576) (56)     
                                                                                  W: block_13_depthwise_weights             f32(576x3x3x1) (53)       
                                                                                  W: block_13_depthwise_bias                f32(576) (50)             
                                                                                  O: block_13_depthwise_output              f32(1x7x7x576) (51)       
------ ------------------------------- ----- --------------- ---------- --------- ----------------------------------------- ------------------------- 
76     block_13_depthwise_relu         122   Nonlinearity    56448      0         I: block_13_depthwise_output              f32(1x7x7x576) (51)       
                                                                                  O: block_13_depthwise_relu_output         f32(1x7x7x576) (52)       
------ ------------------------------- ----- --------------- ---------- --------- ----------------------------------------- ------------------------- 
77     block_13_project                124   Conv2D          4516000    369280    I: block_13_depthwise_relu_output         f32(1x7x7x576) (52)       
                                                                                  S: block_13_project_scratch0                                        
                                                                                  W: block_13_project_weights               f32(160x1x1x576) (62)     
                                                                                  W: block_13_project_bias                  f32(160) (59)             
                                                                                  O: block_13_project_output                f32(1x7x7x160) (60)       
------ ------------------------------- ----- --------------- ---------- --------- ----------------------------------------- ------------------------- 
78     block_14_expand                 126   Conv2D          7527360    618240    I: block_13_project_output                f32(1x7x7x160) (60)       
                                                                                  S: block_14_expand_scratch0                                         
                                                                                  W: block_14_expand_weights                f32(960x1x1x160) (72)     
                                                                                  W: block_14_expand_bias                   f32(960) (68)             
                                                                                  O: block_14_expand_output                 f32(1x7x7x960) (69)       
------ ------------------------------- ----- --------------- ---------- --------- ----------------------------------------- ------------------------- 
79     block_14_expand_relu            127   Nonlinearity    94080      0         I: block_14_expand_output                 f32(1x7x7x960) (69)       
                                                                                  O: block_14_expand_relu_output            f32(1x7x7x960) (70)       
------ ------------------------------- ----- --------------- ---------- --------- ----------------------------------------- ------------------------- 
80     block_14_depthwise              129   Conv2D          424320     38400     I: block_14_expand_relu_output            f32(1x7x7x960) (70)       
                                                                                  W: block_14_depthwise_weights             f32(960x3x3x1) (67)       
                                                                                  W: block_14_depthwise_bias                f32(960) (64)             
                                                                                  O: block_14_depthwise_output              f32(1x7x7x960) (65)       
------ ------------------------------- ----- --------------- ---------- --------- ----------------------------------------- ------------------------- 
81     block_14_depthwise_relu         130   Nonlinearity    94080      0         I: block_14_depthwise_output              f32(1x7x7x960) (65)       
                                                                                  O: block_14_depthwise_relu_output         f32(1x7x7x960) (66)       
------ ------------------------------- ----- --------------- ---------- --------- ----------------------------------------- ------------------------- 
82     block_14_project                132   Conv2D          7526560    615040    I: block_14_depthwise_relu_output         f32(1x7x7x960) (66)       
                                                                                  S: block_14_project_scratch0                                        
                                                                                  W: block_14_project_weights               f32(160x1x1x960) (76)     
                                                                                  W: block_14_project_bias                  f32(160) (73)             
                                                                                  O: block_14_project_output                f32(1x7x7x160) (74)       
------ ------------------------------- ----- --------------- ---------- --------- ----------------------------------------- ------------------------- 
83     block_14_add                    133   Eltwise/add     7840       0         I: block_13_project_output                f32(1x7x7x160) (60)       
                                                                                  I: block_14_project_output                f32(1x7x7x160) (60)       
                                                                                  O: block_14_add_output                    f32(1x7x7x160) (63)       
------ ------------------------------- ----- --------------- ---------- --------- ----------------------------------------- ------------------------- 
84     block_15_expand                 135   Conv2D          7527360    618240    I: block_14_add_output                    f32(1x7x7x160) (63)       
                                                                                  S: block_15_expand_scratch0                                         
                                                                                  W: block_15_expand_weights                f32(960x1x1x160) (86)     
                                                                                  W: block_15_expand_bias                   f32(960) (82)             
                                                                                  O: block_15_expand_output                 f32(1x7x7x960) (83)       
------ ------------------------------- ----- --------------- ---------- --------- ----------------------------------------- ------------------------- 
85     block_15_expand_relu            136   Nonlinearity    94080      0         I: block_15_expand_output                 f32(1x7x7x960) (83)       
                                                                                  O: block_15_expand_relu_output            f32(1x7x7x960) (84)       
------ ------------------------------- ----- --------------- ---------- --------- ----------------------------------------- ------------------------- 
86     block_15_depthwise              138   Conv2D          424320     38400     I: block_15_expand_relu_output            f32(1x7x7x960) (84)       
                                                                                  W: block_15_depthwise_weights             f32(960x3x3x1) (81)       
                                                                                  W: block_15_depthwise_bias                f32(960) (78)             
                                                                                  O: block_15_depthwise_output              f32(1x7x7x960) (79)       
------ ------------------------------- ----- --------------- ---------- --------- ----------------------------------------- ------------------------- 
87     block_15_depthwise_relu         139   Nonlinearity    94080      0         I: block_15_depthwise_output              f32(1x7x7x960) (79)       
                                                                                  O: block_15_depthwise_relu_output         f32(1x7x7x960) (80)       
------ ------------------------------- ----- --------------- ---------- --------- ----------------------------------------- ------------------------- 
88     block_15_project                141   Conv2D          7526560    615040    I: block_15_depthwise_relu_output         f32(1x7x7x960) (80)       
                                                                                  S: block_15_project_scratch0                                        
                                                                                  W: block_15_project_weights               f32(160x1x1x960) (90)     
                                                                                  W: block_15_project_bias                  f32(160) (87)             
                                                                                  O: block_15_project_output                f32(1x7x7x160) (88)       
------ ------------------------------- ----- --------------- ---------- --------- ----------------------------------------- ------------------------- 
89     block_15_add                    142   Eltwise/add     7840       0         I: block_14_add_output                    f32(1x7x7x160) (63)       
                                                                                  I: block_15_project_output                f32(1x7x7x160) (63)       
                                                                                  O: block_15_add_output                    f32(1x7x7x160) (77)       
------ ------------------------------- ----- --------------- ---------- --------- ----------------------------------------- ------------------------- 
90     block_16_expand                 144   Conv2D          7527360    618240    I: block_15_add_output                    f32(1x7x7x160) (77)       
                                                                                  S: block_16_expand_scratch0                                         
                                                                                  W: block_16_expand_weights                f32(960x1x1x160) (99)     
                                                                                  W: block_16_expand_bias                   f32(960) (95)             
                                                                                  O: block_16_expand_output                 f32(1x7x7x960) (96)       
------ ------------------------------- ----- --------------- ---------- --------- ----------------------------------------- ------------------------- 
91     block_16_expand_relu            145   Nonlinearity    94080      0         I: block_16_expand_output                 f32(1x7x7x960) (96)       
                                                                                  O: block_16_expand_relu_output            f32(1x7x7x960) (97)       
------ ------------------------------- ----- --------------- ---------- --------- ----------------------------------------- ------------------------- 
92     block_16_depthwise              147   Conv2D          424320     38400     I: block_16_expand_relu_output            f32(1x7x7x960) (97)       
                                                                                  W: block_16_depthwise_weights             f32(960x3x3x1) (94)       
                                                                                  W: block_16_depthwise_bias                f32(960) (91)             
                                                                                  O: block_16_depthwise_output              f32(1x7x7x960) (92)       
------ ------------------------------- ----- --------------- ---------- --------- ----------------------------------------- ------------------------- 
93     block_16_depthwise_relu         148   Nonlinearity    94080      0         I: block_16_depthwise_output              f32(1x7x7x960) (92)       
                                                                                  O: block_16_depthwise_relu_output         f32(1x7x7x960) (93)       
------ ------------------------------- ----- --------------- ---------- --------- ----------------------------------------- ------------------------- 
94     block_16_project                150   Conv2D          15053120   1230080   I: block_16_depthwise_relu_output         f32(1x7x7x960) (93)       
                                                                                  S: block_16_project_scratch0                                        
                                                                                  W: block_16_project_weights               f32(320x1x1x960) (103)    
                                                                                  W: block_16_project_bias                  f32(320) (100)            
                                                                                  O: block_16_project_output                f32(1x7x7x320) (101)      
------ ------------------------------- ----- --------------- ---------- --------- ----------------------------------------- ------------------------- 
95     Conv_1                          152   Conv2D          20071680   1643520   I: block_16_project_output                f32(1x7x7x320) (101)      
                                                                                  S: Conv_1_scratch0                                                  
                                                                                  W: Conv_1_weights                         f32(1280x1x1x320) (8)     
                                                                                  W: Conv_1_bias                            f32(1280) (5)             
                                                                                  O: Conv_1_output                          f32(1x7x7x1280) (6)       
------ ------------------------------- ----- --------------- ---------- --------- ----------------------------------------- ------------------------- 
96     out_relu                        153   Nonlinearity    125440     0         I: Conv_1_output                          f32(1x7x7x1280) (6)       
                                                                                  O: out_relu_output                        f32(1x7x7x1280) (237)     
------ ------------------------------- ----- --------------- ---------- --------- ----------------------------------------- ------------------------- 
97     global_average_pooling2d_pool   154   Pool            62720      0         I: out_relu_output                        f32(1x7x7x1280) (237)     
                                                                                  O: global_average_pooling2d_pool_output   f32(1x1x1x1280) (235)     
------ ------------------------------- ----- --------------- ---------- --------- ----------------------------------------- ------------------------- 
98     predictions_dense               155   Dense           1281000    5124000   I: global_average_pooling2d_pool_output   f32(1x1x1x1280) (235)     
                                                                                  W: predictions_dense_weights              f32(1000x1280) (240)      
                                                                                  W: predictions_dense_bias                 f32(1000) (238)           
                                                                                  O: predictions_dense_output               f32(1x1000) (239)         
------ ------------------------------- ----- --------------- ---------- --------- ----------------------------------------- ------------------------- 
99     predictions                     155   Nonlinearity    15000      0         I: predictions_dense_output               f32(1x1000) (239)         
                                                                                  O: predictions_output                     f32(1x1000) (241)         
------ ------------------------------- ----- --------------- ---------- --------- ----------------------------------------- ------------------------- 



Number of operations per c-layer
------- ------ --------------------------------------------- ------------- -------------- 
c_id    m_id   name (type)                                             #op           type 
------- ------ --------------------------------------------- ------------- -------------- 
0       2      Conv1 (Conv2D)                                   10,838,048   smul_f32_f32 
1       3      Conv1_relu (Nonlinearity)                           802,816     op_f32_f32 
2       5      expanded_conv_depthwise (Conv2D)                  3,612,704   smul_f32_f32 
3       6      expanded_conv_depthwise_relu (Nonlinearity)         802,816     op_f32_f32 
4       8      expanded_conv_project (Conv2D)                    6,422,544   smul_f32_f32 
5       10     block_1_expand (Conv2D)                          19,267,680   smul_f32_f32 
6       11     block_1_expand_relu (Nonlinearity)                2,408,448     op_f32_f32 
7       12     block_1_depthwise (Conv2D)                        2,709,600   smul_f32_f32 
8       15     block_1_depthwise_relu (Nonlinearity)               602,112     op_f32_f32 
9       17     block_1_project (Conv2D)                          7,225,368   smul_f32_f32 
10      19     block_2_expand (Conv2D)                          10,838,160   smul_f32_f32 
11      20     block_2_expand_relu (Nonlinearity)                  903,168     op_f32_f32 
12      22     block_2_depthwise (Conv2D)                        4,064,400   smul_f32_f32 
13      23     block_2_depthwise_relu (Nonlinearity)               903,168     op_f32_f32 
14      25     block_2_project (Conv2D)                         10,838,040   smul_f32_f32 
15      26     block_2_add (Eltwise/add)                            75,264     op_f32_f32 
16      28     block_3_expand (Conv2D)                          10,838,160   smul_f32_f32 
17      29     block_3_expand_relu (Nonlinearity)                  903,168     op_f32_f32 
18      30     block_3_depthwise (Conv2D)                        1,016,208   smul_f32_f32 
19      33     block_3_depthwise_relu (Nonlinearity)               225,792     op_f32_f32 
20      35     block_3_project (Conv2D)                          3,612,704   smul_f32_f32 
21      37     block_4_expand (Conv2D)                           4,817,088   smul_f32_f32 
22      38     block_4_expand_relu (Nonlinearity)                  301,056     op_f32_f32 
23      40     block_4_depthwise (Conv2D)                        1,354,944   smul_f32_f32 
24      41     block_4_depthwise_relu (Nonlinearity)               301,056     op_f32_f32 
25      43     block_4_project (Conv2D)                          4,816,928   smul_f32_f32 
26      44     block_4_add (Eltwise/add)                            25,088     op_f32_f32 
27      46     block_5_expand (Conv2D)                           4,817,088   smul_f32_f32 
28      47     block_5_expand_relu (Nonlinearity)                  301,056     op_f32_f32 
29      49     block_5_depthwise (Conv2D)                        1,354,944   smul_f32_f32 
30      50     block_5_depthwise_relu (Nonlinearity)               301,056     op_f32_f32 
31      52     block_5_project (Conv2D)                          4,816,928   smul_f32_f32 
32      53     block_5_add (Eltwise/add)                            25,088     op_f32_f32 
33      55     block_6_expand (Conv2D)                           4,817,088   smul_f32_f32 
34      56     block_6_expand_relu (Nonlinearity)                  301,056     op_f32_f32 
35      57     block_6_depthwise (Conv2D)                          338,880   smul_f32_f32 
36      60     block_6_depthwise_relu (Nonlinearity)                75,264     op_f32_f32 
37      62     block_6_project (Conv2D)                          2,408,512   smul_f32_f32 
38      64     block_7_expand (Conv2D)                           4,817,280   smul_f32_f32 
39      65     block_7_expand_relu (Nonlinearity)                  150,528     op_f32_f32 
40      67     block_7_depthwise (Conv2D)                          677,760   smul_f32_f32 
41      68     block_7_depthwise_relu (Nonlinearity)               150,528     op_f32_f32 
42      70     block_7_project (Conv2D)                          4,816,960   smul_f32_f32 
43      71     block_7_add (Eltwise/add)                            12,544     op_f32_f32 
44      73     block_8_expand (Conv2D)                           4,817,280   smul_f32_f32 
45      74     block_8_expand_relu (Nonlinearity)                  150,528     op_f32_f32 
46      76     block_8_depthwise (Conv2D)                          677,760   smul_f32_f32 
47      77     block_8_depthwise_relu (Nonlinearity)               150,528     op_f32_f32 
48      79     block_8_project (Conv2D)                          4,816,960   smul_f32_f32 
49      80     block_8_add (Eltwise/add)                            12,544     op_f32_f32 
50      82     block_9_expand (Conv2D)                           4,817,280   smul_f32_f32 
51      83     block_9_expand_relu (Nonlinearity)                  150,528     op_f32_f32 
52      85     block_9_depthwise (Conv2D)                          677,760   smul_f32_f32 
53      86     block_9_depthwise_relu (Nonlinearity)               150,528     op_f32_f32 
54      88     block_9_project (Conv2D)                          4,816,960   smul_f32_f32 
55      89     block_9_add (Eltwise/add)                            12,544     op_f32_f32 
56      91     block_10_expand (Conv2D)                          4,817,280   smul_f32_f32 
57      92     block_10_expand_relu (Nonlinearity)                 150,528     op_f32_f32 
58      94     block_10_depthwise (Conv2D)                         677,760   smul_f32_f32 
59      95     block_10_depthwise_relu (Nonlinearity)              150,528     op_f32_f32 
60      97     block_10_project (Conv2D)                         7,225,440   smul_f32_f32 
61      99     block_11_expand (Conv2D)                         10,838,592   smul_f32_f32 
62      100    block_11_expand_relu (Nonlinearity)                 225,792     op_f32_f32 
63      102    block_11_depthwise (Conv2D)                       1,016,640   smul_f32_f32 
64      103    block_11_depthwise_relu (Nonlinearity)              225,792     op_f32_f32 
65      105    block_11_project (Conv2D)                        10,838,112   smul_f32_f32 
66      106    block_11_add (Eltwise/add)                           18,816     op_f32_f32 
67      108    block_12_expand (Conv2D)                         10,838,592   smul_f32_f32 
68      109    block_12_expand_relu (Nonlinearity)                 225,792     op_f32_f32 
69      111    block_12_depthwise (Conv2D)                       1,016,640   smul_f32_f32 
70      112    block_12_depthwise_relu (Nonlinearity)              225,792     op_f32_f32 
71      114    block_12_project (Conv2D)                        10,838,112   smul_f32_f32 
72      115    block_12_add (Eltwise/add)                           18,816     op_f32_f32 
73      117    block_13_expand (Conv2D)                         10,838,592   smul_f32_f32 
74      118    block_13_expand_relu (Nonlinearity)                 225,792     op_f32_f32 
75      119    block_13_depthwise (Conv2D)                         254,592   smul_f32_f32 
76      122    block_13_depthwise_relu (Nonlinearity)               56,448     op_f32_f32 
77      124    block_13_project (Conv2D)                         4,516,000   smul_f32_f32 
78      126    block_14_expand (Conv2D)                          7,527,360   smul_f32_f32 
79      127    block_14_expand_relu (Nonlinearity)                  94,080     op_f32_f32 
80      129    block_14_depthwise (Conv2D)                         424,320   smul_f32_f32 
81      130    block_14_depthwise_relu (Nonlinearity)               94,080     op_f32_f32 
82      132    block_14_project (Conv2D)                         7,526,560   smul_f32_f32 
83      133    block_14_add (Eltwise/add)                            7,840     op_f32_f32 
84      135    block_15_expand (Conv2D)                          7,527,360   smul_f32_f32 
85      136    block_15_expand_relu (Nonlinearity)                  94,080     op_f32_f32 
86      138    block_15_depthwise (Conv2D)                         424,320   smul_f32_f32 
87      139    block_15_depthwise_relu (Nonlinearity)               94,080     op_f32_f32 
88      141    block_15_project (Conv2D)                         7,526,560   smul_f32_f32 
89      142    block_15_add (Eltwise/add)                            7,840     op_f32_f32 
90      144    block_16_expand (Conv2D)                          7,527,360   smul_f32_f32 
91      145    block_16_expand_relu (Nonlinearity)                  94,080     op_f32_f32 
92      147    block_16_depthwise (Conv2D)                         424,320   smul_f32_f32 
93      148    block_16_depthwise_relu (Nonlinearity)               94,080     op_f32_f32 
94      150    block_16_project (Conv2D)                        15,053,120   smul_f32_f32 
95      152    Conv_1 (Conv2D)                                  20,071,680   smul_f32_f32 
96      153    out_relu (Nonlinearity)                             125,440     op_f32_f32 
97      154    global_average_pooling2d_pool (Pool)                 62,720   smul_f32_f32 
98      155    predictions_dense (Dense)                         1,281,000   smul_f32_f32 
99      155    predictions (Nonlinearity)                           15,000     op_f32_f32 
------- ------ --------------------------------------------- ------------- -------------- 
total                                                          313,298,016 

Number of operation types
---------------- ------------- ----------- 
operation type               #           % 
---------------- ------------- ----------- 
smul_f32_f32       300,855,048       96.0% 
op_f32_f32          12,442,968        4.0% 

Complexity report (model)
------ ------------------------------- ------------------------- ------------------------- ---------- 
m_id   name                            c_macc                    c_rom                     c_id       
------ ------------------------------- ------------------------- ------------------------- ---------- 
2      bn_Conv1                        |||||||||          3.5%   |                  0.0%   [0]        
3      Conv1_relu                      |                  0.3%   |                  0.0%   [1]        
5      expanded_conv_depthwise_BN      |||                1.2%   |                  0.0%   [2]        
6      expanded_conv_depthwise_relu    |                  0.3%   |                  0.0%   [3]        
8      expanded_conv_project_BN        |||||              2.0%   |                  0.0%   [4]        
10     block_1_expand_BN               |||||||||||||||    6.1%   |                  0.0%   [5]        
11     block_1_expand_relu             ||                 0.8%   |                  0.0%   [6]        
12     block_1_pad                     |||                0.9%   |                  0.0%   [7]        
15     block_1_depthwise_relu          |                  0.2%   |                  0.0%   [8]        
17     block_1_project_BN              ||||||             2.3%   |                  0.1%   [9]        
19     block_2_expand_BN               |||||||||          3.5%   |                  0.1%   [10]       
20     block_2_expand_relu             |                  0.3%   |                  0.0%   [11]       
22     block_2_depthwise_BN            ||||               1.3%   |                  0.0%   [12]       
23     block_2_depthwise_relu          |                  0.3%   |                  0.0%   [13]       
25     block_2_project_BN              |||||||||          3.5%   |                  0.1%   [14]       
26     block_2_add                     |                  0.0%   |                  0.0%   [15]       
28     block_3_expand_BN               |||||||||          3.5%   |                  0.1%   [16]       
29     block_3_expand_relu             |                  0.3%   |                  0.0%   [17]       
30     block_3_pad                     |                  0.3%   |                  0.0%   [18]       
33     block_3_depthwise_relu          |                  0.1%   |                  0.0%   [19]       
35     block_3_project_BN              |||                1.2%   |                  0.1%   [20]       
37     block_4_expand_BN               ||||               1.5%   |                  0.2%   [21]       
38     block_4_expand_relu             |                  0.1%   |                  0.0%   [22]       
40     block_4_depthwise_BN            ||                 0.4%   |                  0.1%   [23]       
41     block_4_depthwise_relu          |                  0.1%   |                  0.0%   [24]       
43     block_4_project_BN              ||||               1.5%   |                  0.2%   [25]       
44     block_4_add                     |                  0.0%   |                  0.0%   [26]       
46     block_5_expand_BN               ||||               1.5%   |                  0.2%   [27]       
47     block_5_expand_relu             |                  0.1%   |                  0.0%   [28]       
49     block_5_depthwise_BN            ||                 0.4%   |                  0.1%   [29]       
50     block_5_depthwise_relu          |                  0.1%   |                  0.0%   [30]       
52     block_5_project_BN              ||||               1.5%   |                  0.2%   [31]       
53     block_5_add                     |                  0.0%   |                  0.0%   [32]       
55     block_6_expand_BN               ||||               1.5%   |                  0.2%   [33]       
56     block_6_expand_relu             |                  0.1%   |                  0.0%   [34]       
57     block_6_pad                     |                  0.1%   |                  0.1%   [35]       
60     block_6_depthwise_relu          |                  0.0%   |                  0.0%   [36]       
62     block_6_project_BN              ||                 0.8%   |                  0.4%   [37]       
64     block_7_expand_BN               ||||               1.5%   |                  0.7%   [38]       
65     block_7_expand_relu             |                  0.0%   |                  0.0%   [39]       
67     block_7_depthwise_BN            |                  0.2%   |                  0.1%   [40]       
68     block_7_depthwise_relu          |                  0.0%   |                  0.0%   [41]       
70     block_7_project_BN              ||||               1.5%   |                  0.7%   [42]       
71     block_7_add                     |                  0.0%   |                  0.0%   [43]       
73     block_8_expand_BN               ||||               1.5%   |                  0.7%   [44]       
74     block_8_expand_relu             |                  0.0%   |                  0.0%   [45]       
76     block_8_depthwise_BN            |                  0.2%   |                  0.1%   [46]       
77     block_8_depthwise_relu          |                  0.0%   |                  0.0%   [47]       
79     block_8_project_BN              ||||               1.5%   |                  0.7%   [48]       
80     block_8_add                     |                  0.0%   |                  0.0%   [49]       
82     block_9_expand_BN               ||||               1.5%   |                  0.7%   [50]       
83     block_9_expand_relu             |                  0.0%   |                  0.0%   [51]       
85     block_9_depthwise_BN            |                  0.2%   |                  0.1%   [52]       
86     block_9_depthwise_relu          |                  0.0%   |                  0.0%   [53]       
88     block_9_project_BN              ||||               1.5%   |                  0.7%   [54]       
89     block_9_add                     |                  0.0%   |                  0.0%   [55]       
91     block_10_expand_BN              ||||               1.5%   |                  0.7%   [56]       
92     block_10_expand_relu            |                  0.0%   |                  0.0%   [57]       
94     block_10_depthwise_BN           |                  0.2%   |                  0.1%   [58]       
95     block_10_depthwise_relu         |                  0.0%   |                  0.0%   [59]       
97     block_10_project_BN             ||||||             2.3%   |                  1.1%   [60]       
99     block_11_expand_BN              |||||||||          3.5%   |                  1.6%   [61]       
100    block_11_expand_relu            |                  0.1%   |                  0.0%   [62]       
102    block_11_depthwise_BN           |                  0.3%   |                  0.2%   [63]       
103    block_11_depthwise_relu         |                  0.1%   |                  0.0%   [64]       
105    block_11_project_BN             |||||||||          3.5%   |                  1.6%   [65]       
106    block_11_add                    |                  0.0%   |                  0.0%   [66]       
108    block_12_expand_BN              |||||||||          3.5%   |                  1.6%   [67]       
109    block_12_expand_relu            |                  0.1%   |                  0.0%   [68]       
111    block_12_depthwise_BN           |                  0.3%   |                  0.2%   [69]       
112    block_12_depthwise_relu         |                  0.1%   |                  0.0%   [70]       
114    block_12_project_BN             |||||||||          3.5%   |                  1.6%   [71]       
115    block_12_add                    |                  0.0%   |                  0.0%   [72]       
117    block_13_expand_BN              |||||||||          3.5%   |                  1.6%   [73]       
118    block_13_expand_relu            |                  0.1%   |                  0.0%   [74]       
119    block_13_pad                    |                  0.1%   |                  0.2%   [75]       
122    block_13_depthwise_relu         |                  0.0%   |                  0.0%   [76]       
124    block_13_project_BN             ||||               1.4%   ||                 2.6%   [77]       
126    block_14_expand_BN              ||||||             2.4%   ||                 4.4%   [78]       
127    block_14_expand_relu            |                  0.0%   |                  0.0%   [79]       
129    block_14_depthwise_BN           |                  0.1%   |                  0.3%   [80]       
130    block_14_depthwise_relu         |                  0.0%   |                  0.0%   [81]       
132    block_14_project_BN             ||||||             2.4%   ||                 4.4%   [82]       
133    block_14_add                    |                  0.0%   |                  0.0%   [83]       
135    block_15_expand_BN              ||||||             2.4%   ||                 4.4%   [84]       
136    block_15_expand_relu            |                  0.0%   |                  0.0%   [85]       
138    block_15_depthwise_BN           |                  0.1%   |                  0.3%   [86]       
139    block_15_depthwise_relu         |                  0.0%   |                  0.0%   [87]       
141    block_15_project_BN             ||||||             2.4%   ||                 4.4%   [88]       
142    block_15_add                    |                  0.0%   |                  0.0%   [89]       
144    block_16_expand_BN              ||||||             2.4%   ||                 4.4%   [90]       
145    block_16_expand_relu            |                  0.0%   |                  0.0%   [91]       
147    block_16_depthwise_BN           |                  0.1%   |                  0.3%   [92]       
148    block_16_depthwise_relu         |                  0.0%   |                  0.0%   [93]       
150    block_16_project_BN             ||||||||||||       4.8%   ||||               8.8%   [94]       
152    Conv_1_bn                       ||||||||||||||||   6.4%   |||||             11.8%   [95]       
153    out_relu                        |                  0.0%   |                  0.0%   [96]       
154    global_average_pooling2d_pool   |                  0.0%   |                  0.0%   [97]       
155    predictions_dense               |                  0.4%   ||||||||||||||||  36.7%   [98, 99]   
------ ------------------------------- ------------------------- ------------------------- ---------- 
macc=313,298,016 weights=13,951,264 act=4,917,696 ram_io=0
