ST Edge AI Core v2.2.0-20266 2adc00962
Created date          : 2025-11-14 17:36:24
Parameters            : generate --model /mnt/shared-storage/mrusso/resnet_v1_32_32_tfs.h5 --target stm32f4 --compression high --output ./analisiAI/code_resnet

Exec/report summary (generate)
-----------------------------------------------------------------------------------------------
model file         :   /mnt/shared-storage/mrusso/resnet_v1_32_32_tfs.h5                       
type               :   keras                                                                   
c_name             :   network                                                                 
compression        :   high                                                                    
options            :   allocate-inputs, allocate-outputs                                       
optimization       :   balanced                                                                
target/series      :   stm32f4                                                                 
workspace dir      :   /mnt/shared-storage/mrusso/Langgraph_General_v6/st_ai_ws                
output dir         :   /mnt/shared-storage/mrusso/Langgraph_General_v6/analisiAI/code_resnet   
model_fmt          :   float                                                                   
model_name         :   resnet_v1_32_32_tfs                                                     
model_hash         :   0x2cc0ece20905a57e83b21acb672367d1                                      
params #           :   473,796 items (1.81 MiB)                                                
-----------------------------------------------------------------------------------------------
input 1/1          :   'input_1', f32(1x32x32x3), 12.00 KBytes, activations                    
output 1/1         :   'dense', f32(1x100), 400 Bytes, activations                             
macc               :   69,583,888                                                              
weights (ro)       :   1,863,760 B (1.78 MiB) (1 segment) / -31,424(-1.7%) vs float model      
activations (rw)   :   136,512 B (133.31 KiB) (1 segment) *                                    
ram (total)        :   136,512 B (133.31 KiB) = 136,512 + 0 + 0                                
-----------------------------------------------------------------------------------------------
(*) 'input'/'output' buffers are allocated in the activations buffer

Model name - resnet_v1_32_32_tfs
------ -------------------------------------------------------- ---------------------- ---------------- ----------- ------------------------ --- --------------------- ----------------------- --------------------------------- 
m_id   layer (type,original)                                    oshape                 param/size              macc             connected to   | c_size                c_macc                  c_type                            
------ -------------------------------------------------------- ---------------------- ---------------- ----------- ------------------------ --- --------------------- ----------------------- --------------------------------- 
0      input_1 (Input, InputLayer)                              [b:1,h:32,w:32,c:3]                                                            |                                               
------ -------------------------------------------------------- ---------------------- ---------------- ----------- ------------------------ --- --------------------- ----------------------- --------------------------------- 
1      conv2d (Conv2D, Conv2D)                                  [b:1,h:32,w:32,c:16]   448/1,792            442,384                  input_1   | -1,792(-100.0%)       -442,384(-100.0%)       
------ -------------------------------------------------------- ---------------------- ---------------- ----------- ------------------------ --- --------------------- ----------------------- --------------------------------- 
2      batch_normalization (ScaleBias, BatchNormalization)      [b:1,h:32,w:32,c:16]   32/128                32,768                   conv2d   | +1,664(+1300.0%)      +409,616(+1250.0%)      Conv2D_[0]                        
------ -------------------------------------------------------- ---------------------- ---------------- ----------- ------------------------ --- --------------------- ----------------------- --------------------------------- 
3      activation (Nonlinearity, Activation)                    [b:1,h:32,w:32,c:16]                         16,384      batch_normalization   |                                               Nonlinearity_[1]                  
------ -------------------------------------------------------- ---------------------- ---------------- ----------- ------------------------ --- --------------------- ----------------------- --------------------------------- 
4      conv2d_1 (Conv2D, Conv2D)                                [b:1,h:32,w:32,c:16]   2,320/9,280        2,359,312               activation   | -9,280(-100.0%)       -2,359,312(-100.0%)     
------ -------------------------------------------------------- ---------------------- ---------------- ----------- ------------------------ --- --------------------- ----------------------- --------------------------------- 
5      batch_normalization_1 (ScaleBias, BatchNormalization)    [b:1,h:32,w:32,c:16]   32/128                32,768                 conv2d_1   | +9,152(+7150.0%)      +2,326,544(+7100.0%)    Conv2D_[2]                        
------ -------------------------------------------------------- ---------------------- ---------------- ----------- ------------------------ --- --------------------- ----------------------- --------------------------------- 
6      activation_1 (Nonlinearity, Activation)                  [b:1,h:32,w:32,c:16]                         16,384    batch_normalization_1   |                                               Nonlinearity_[3]                  
------ -------------------------------------------------------- ---------------------- ---------------- ----------- ------------------------ --- --------------------- ----------------------- --------------------------------- 
7      conv2d_2 (Conv2D, Conv2D)                                [b:1,h:32,w:32,c:16]   2,320/9,280        2,359,312             activation_1   | -9,280(-100.0%)       -2,359,312(-100.0%)     
------ -------------------------------------------------------- ---------------------- ---------------- ----------- ------------------------ --- --------------------- ----------------------- --------------------------------- 
8      batch_normalization_2 (ScaleBias, BatchNormalization)    [b:1,h:32,w:32,c:16]   32/128                32,768                 conv2d_2   | +9,152(+7150.0%)      +2,326,544(+7100.0%)    Conv2D_[4]                        
------ -------------------------------------------------------- ---------------------- ---------------- ----------- ------------------------ --- --------------------- ----------------------- --------------------------------- 
9      add (Eltwise, Add)                                       [b:1,h:32,w:32,c:16]                         16,384               activation   |                                               Eltwise/add_[5]                   
                                                                                                                       batch_normalization_2   | 
------ -------------------------------------------------------- ---------------------- ---------------- ----------- ------------------------ --- --------------------- ----------------------- --------------------------------- 
10     activation_2 (Nonlinearity, Activation)                  [b:1,h:32,w:32,c:16]                         16,384                      add   |                                               Nonlinearity_[6]                  
------ -------------------------------------------------------- ---------------------- ---------------- ----------- ------------------------ --- --------------------- ----------------------- --------------------------------- 
11     conv2d_3 (Conv2D, Conv2D)                                [b:1,h:32,w:32,c:16]   2,320/9,280        2,359,312             activation_2   | -9,280(-100.0%)       -2,359,312(-100.0%)     
------ -------------------------------------------------------- ---------------------- ---------------- ----------- ------------------------ --- --------------------- ----------------------- --------------------------------- 
12     batch_normalization_3 (ScaleBias, BatchNormalization)    [b:1,h:32,w:32,c:16]   32/128                32,768                 conv2d_3   | +9,152(+7150.0%)      +2,326,544(+7100.0%)    Conv2D_[7]                        
------ -------------------------------------------------------- ---------------------- ---------------- ----------- ------------------------ --- --------------------- ----------------------- --------------------------------- 
13     activation_3 (Nonlinearity, Activation)                  [b:1,h:32,w:32,c:16]                         16,384    batch_normalization_3   |                                               Nonlinearity_[8]                  
------ -------------------------------------------------------- ---------------------- ---------------- ----------- ------------------------ --- --------------------- ----------------------- --------------------------------- 
14     conv2d_4 (Conv2D, Conv2D)                                [b:1,h:32,w:32,c:16]   2,320/9,280        2,359,312             activation_3   | -9,280(-100.0%)       -2,359,312(-100.0%)     
------ -------------------------------------------------------- ---------------------- ---------------- ----------- ------------------------ --- --------------------- ----------------------- --------------------------------- 
15     batch_normalization_4 (ScaleBias, BatchNormalization)    [b:1,h:32,w:32,c:16]   32/128                32,768                 conv2d_4   | +9,152(+7150.0%)      +2,326,544(+7100.0%)    Conv2D_[9]                        
------ -------------------------------------------------------- ---------------------- ---------------- ----------- ------------------------ --- --------------------- ----------------------- --------------------------------- 
16     add_1 (Eltwise, Add)                                     [b:1,h:32,w:32,c:16]                         16,384             activation_2   |                                               Eltwise/add_[10]                  
                                                                                                                       batch_normalization_4   | 
------ -------------------------------------------------------- ---------------------- ---------------- ----------- ------------------------ --- --------------------- ----------------------- --------------------------------- 
17     activation_4 (Nonlinearity, Activation)                  [b:1,h:32,w:32,c:16]                         16,384                    add_1   |                                               Nonlinearity_[11]                 
------ -------------------------------------------------------- ---------------------- ---------------- ----------- ------------------------ --- --------------------- ----------------------- --------------------------------- 
18     conv2d_5 (Conv2D, Conv2D)                                [b:1,h:32,w:32,c:16]   2,320/9,280        2,359,312             activation_4   | -9,280(-100.0%)       -2,359,312(-100.0%)     
------ -------------------------------------------------------- ---------------------- ---------------- ----------- ------------------------ --- --------------------- ----------------------- --------------------------------- 
19     batch_normalization_5 (ScaleBias, BatchNormalization)    [b:1,h:32,w:32,c:16]   32/128                32,768                 conv2d_5   | +9,152(+7150.0%)      +2,326,544(+7100.0%)    Conv2D_[12]                       
------ -------------------------------------------------------- ---------------------- ---------------- ----------- ------------------------ --- --------------------- ----------------------- --------------------------------- 
20     activation_5 (Nonlinearity, Activation)                  [b:1,h:32,w:32,c:16]                         16,384    batch_normalization_5   |                                               Nonlinearity_[13]                 
------ -------------------------------------------------------- ---------------------- ---------------- ----------- ------------------------ --- --------------------- ----------------------- --------------------------------- 
21     conv2d_6 (Conv2D, Conv2D)                                [b:1,h:32,w:32,c:16]   2,320/9,280        2,359,312             activation_5   | -9,280(-100.0%)       -2,359,312(-100.0%)     
------ -------------------------------------------------------- ---------------------- ---------------- ----------- ------------------------ --- --------------------- ----------------------- --------------------------------- 
22     batch_normalization_6 (ScaleBias, BatchNormalization)    [b:1,h:32,w:32,c:16]   32/128                32,768                 conv2d_6   | +9,152(+7150.0%)      +2,326,544(+7100.0%)    Conv2D_[14]                       
------ -------------------------------------------------------- ---------------------- ---------------- ----------- ------------------------ --- --------------------- ----------------------- --------------------------------- 
23     add_2 (Eltwise, Add)                                     [b:1,h:32,w:32,c:16]                         16,384             activation_4   |                                               Eltwise/add_[15]                  
                                                                                                                       batch_normalization_6   | 
------ -------------------------------------------------------- ---------------------- ---------------- ----------- ------------------------ --- --------------------- ----------------------- --------------------------------- 
24     activation_6 (Nonlinearity, Activation)                  [b:1,h:32,w:32,c:16]                         16,384                    add_2   |                                               Nonlinearity_[16]                 
------ -------------------------------------------------------- ---------------------- ---------------- ----------- ------------------------ --- --------------------- ----------------------- --------------------------------- 
25     conv2d_7 (Conv2D, Conv2D)                                [b:1,h:32,w:32,c:16]   2,320/9,280        2,359,312             activation_6   | -9,280(-100.0%)       -2,359,312(-100.0%)     
------ -------------------------------------------------------- ---------------------- ---------------- ----------- ------------------------ --- --------------------- ----------------------- --------------------------------- 
26     batch_normalization_7 (ScaleBias, BatchNormalization)    [b:1,h:32,w:32,c:16]   32/128                32,768                 conv2d_7   | +9,152(+7150.0%)      +2,326,544(+7100.0%)    Conv2D_[17]                       
------ -------------------------------------------------------- ---------------------- ---------------- ----------- ------------------------ --- --------------------- ----------------------- --------------------------------- 
27     activation_7 (Nonlinearity, Activation)                  [b:1,h:32,w:32,c:16]                         16,384    batch_normalization_7   |                                               Nonlinearity_[18]                 
------ -------------------------------------------------------- ---------------------- ---------------- ----------- ------------------------ --- --------------------- ----------------------- --------------------------------- 
28     conv2d_8 (Conv2D, Conv2D)                                [b:1,h:32,w:32,c:16]   2,320/9,280        2,359,312             activation_7   | -9,280(-100.0%)       -2,359,312(-100.0%)     
------ -------------------------------------------------------- ---------------------- ---------------- ----------- ------------------------ --- --------------------- ----------------------- --------------------------------- 
29     batch_normalization_8 (ScaleBias, BatchNormalization)    [b:1,h:32,w:32,c:16]   32/128                32,768                 conv2d_8   | +9,152(+7150.0%)      +2,326,544(+7100.0%)    Conv2D_[19]                       
------ -------------------------------------------------------- ---------------------- ---------------- ----------- ------------------------ --- --------------------- ----------------------- --------------------------------- 
30     add_3 (Eltwise, Add)                                     [b:1,h:32,w:32,c:16]                         16,384             activation_6   |                                               Eltwise/add_[20]                  
                                                                                                                       batch_normalization_8   | 
------ -------------------------------------------------------- ---------------------- ---------------- ----------- ------------------------ --- --------------------- ----------------------- --------------------------------- 
31     activation_8 (Nonlinearity, Activation)                  [b:1,h:32,w:32,c:16]                         16,384                    add_3   |                                               Nonlinearity_[21]                 
------ -------------------------------------------------------- ---------------------- ---------------- ----------- ------------------------ --- --------------------- ----------------------- --------------------------------- 
32     conv2d_9 (Conv2D, Conv2D)                                [b:1,h:32,w:32,c:16]   2,320/9,280        2,359,312             activation_8   | -9,280(-100.0%)       -2,359,312(-100.0%)     
------ -------------------------------------------------------- ---------------------- ---------------- ----------- ------------------------ --- --------------------- ----------------------- --------------------------------- 
33     batch_normalization_9 (ScaleBias, BatchNormalization)    [b:1,h:32,w:32,c:16]   32/128                32,768                 conv2d_9   | +9,152(+7150.0%)      +2,326,544(+7100.0%)    Conv2D_[22]                       
------ -------------------------------------------------------- ---------------------- ---------------- ----------- ------------------------ --- --------------------- ----------------------- --------------------------------- 
34     activation_9 (Nonlinearity, Activation)                  [b:1,h:32,w:32,c:16]                         16,384    batch_normalization_9   |                                               Nonlinearity_[23]                 
------ -------------------------------------------------------- ---------------------- ---------------- ----------- ------------------------ --- --------------------- ----------------------- --------------------------------- 
35     conv2d_10 (Conv2D, Conv2D)                               [b:1,h:32,w:32,c:16]   2,320/9,280        2,359,312             activation_9   | -9,280(-100.0%)       -2,359,312(-100.0%)     
------ -------------------------------------------------------- ---------------------- ---------------- ----------- ------------------------ --- --------------------- ----------------------- --------------------------------- 
36     batch_normalization_10 (ScaleBias, BatchNormalization)   [b:1,h:32,w:32,c:16]   32/128                32,768                conv2d_10   | +9,152(+7150.0%)      +2,326,544(+7100.0%)    Conv2D_[24]                       
------ -------------------------------------------------------- ---------------------- ---------------- ----------- ------------------------ --- --------------------- ----------------------- --------------------------------- 
37     add_4 (Eltwise, Add)                                     [b:1,h:32,w:32,c:16]                         16,384             activation_8   |                                               Eltwise/add_[25]                  
                                                                                                                      batch_normalization_10   | 
------ -------------------------------------------------------- ---------------------- ---------------- ----------- ------------------------ --- --------------------- ----------------------- --------------------------------- 
38     activation_10 (Nonlinearity, Activation)                 [b:1,h:32,w:32,c:16]                         16,384                    add_4   |                                               Nonlinearity_[26]                 
------ -------------------------------------------------------- ---------------------- ---------------- ----------- ------------------------ --- --------------------- ----------------------- --------------------------------- 
39     conv2d_11 (Conv2D, Conv2D)                               [b:1,h:16,w:16,c:32]   4,640/18,560       1,179,680            activation_10   | -18,560(-100.0%)      -1,179,680(-100.0%)     
------ -------------------------------------------------------- ---------------------- ---------------- ----------- ------------------------ --- --------------------- ----------------------- --------------------------------- 
40     batch_normalization_11 (ScaleBias, BatchNormalization)   [b:1,h:16,w:16,c:32]   64/256                16,384                conv2d_11   | +18,304(+7150.0%)     +1,163,296(+7100.2%)    Conv2D_[28]                       
------ -------------------------------------------------------- ---------------------- ---------------- ----------- ------------------------ --- --------------------- ----------------------- --------------------------------- 
41     activation_11 (Nonlinearity, Activation)                 [b:1,h:16,w:16,c:32]                          8,192   batch_normalization_11   |                                               Nonlinearity_[29]                 
------ -------------------------------------------------------- ---------------------- ---------------- ----------- ------------------------ --- --------------------- ----------------------- --------------------------------- 
42     conv2d_12 (Conv2D, Conv2D)                               [b:1,h:16,w:16,c:32]   9,248/36,992       2,359,328            activation_11   | -36,992(-100.0%)      -2,359,328(-100.0%)     
------ -------------------------------------------------------- ---------------------- ---------------- ----------- ------------------------ --- --------------------- ----------------------- --------------------------------- 
43     conv2d_13 (Conv2D, Conv2D)                               [b:1,h:16,w:16,c:32]   544/2,176            131,104            activation_10   |                                               Conv2D_[27]                       
------ -------------------------------------------------------- ---------------------- ---------------- ----------- ------------------------ --- --------------------- ----------------------- --------------------------------- 
44     batch_normalization_12 (ScaleBias, BatchNormalization)   [b:1,h:16,w:16,c:32]   64/256                16,384                conv2d_12   | +36,736(+14350.0%)    +2,342,944(+14300.2%)   Conv2D_[30]                       
------ -------------------------------------------------------- ---------------------- ---------------- ----------- ------------------------ --- --------------------- ----------------------- --------------------------------- 
45     add_5 (Eltwise, Add)                                     [b:1,h:16,w:16,c:32]                          8,192                conv2d_13   |                                               Eltwise/add_[31]                  
                                                                                                                      batch_normalization_12   | 
------ -------------------------------------------------------- ---------------------- ---------------- ----------- ------------------------ --- --------------------- ----------------------- --------------------------------- 
46     activation_12 (Nonlinearity, Activation)                 [b:1,h:16,w:16,c:32]                          8,192                    add_5   |                                               Nonlinearity_[32]                 
------ -------------------------------------------------------- ---------------------- ---------------- ----------- ------------------------ --- --------------------- ----------------------- --------------------------------- 
47     conv2d_14 (Conv2D, Conv2D)                               [b:1,h:16,w:16,c:32]   9,248/36,992       2,359,328            activation_12   | -36,992(-100.0%)      -2,359,328(-100.0%)     
------ -------------------------------------------------------- ---------------------- ---------------- ----------- ------------------------ --- --------------------- ----------------------- --------------------------------- 
48     batch_normalization_13 (ScaleBias, BatchNormalization)   [b:1,h:16,w:16,c:32]   64/256                16,384                conv2d_14   | +36,736(+14350.0%)    +2,342,944(+14300.2%)   Conv2D_[33]                       
------ -------------------------------------------------------- ---------------------- ---------------- ----------- ------------------------ --- --------------------- ----------------------- --------------------------------- 
49     activation_13 (Nonlinearity, Activation)                 [b:1,h:16,w:16,c:32]                          8,192   batch_normalization_13   |                                               Nonlinearity_[34]                 
------ -------------------------------------------------------- ---------------------- ---------------- ----------- ------------------------ --- --------------------- ----------------------- --------------------------------- 
50     conv2d_15 (Conv2D, Conv2D)                               [b:1,h:16,w:16,c:32]   9,248/36,992       2,359,328            activation_13   | -36,992(-100.0%)      -2,359,328(-100.0%)     
------ -------------------------------------------------------- ---------------------- ---------------- ----------- ------------------------ --- --------------------- ----------------------- --------------------------------- 
51     batch_normalization_14 (ScaleBias, BatchNormalization)   [b:1,h:16,w:16,c:32]   64/256                16,384                conv2d_15   | +36,736(+14350.0%)    +2,342,944(+14300.2%)   Conv2D_[35]                       
------ -------------------------------------------------------- ---------------------- ---------------- ----------- ------------------------ --- --------------------- ----------------------- --------------------------------- 
52     add_6 (Eltwise, Add)                                     [b:1,h:16,w:16,c:32]                          8,192            activation_12   |                                               Eltwise/add_[36]                  
                                                                                                                      batch_normalization_14   | 
------ -------------------------------------------------------- ---------------------- ---------------- ----------- ------------------------ --- --------------------- ----------------------- --------------------------------- 
53     activation_14 (Nonlinearity, Activation)                 [b:1,h:16,w:16,c:32]                          8,192                    add_6   |                                               Nonlinearity_[37]                 
------ -------------------------------------------------------- ---------------------- ---------------- ----------- ------------------------ --- --------------------- ----------------------- --------------------------------- 
54     conv2d_16 (Conv2D, Conv2D)                               [b:1,h:16,w:16,c:32]   9,248/36,992       2,359,328            activation_14   | -36,992(-100.0%)      -2,359,328(-100.0%)     
------ -------------------------------------------------------- ---------------------- ---------------- ----------- ------------------------ --- --------------------- ----------------------- --------------------------------- 
55     batch_normalization_15 (ScaleBias, BatchNormalization)   [b:1,h:16,w:16,c:32]   64/256                16,384                conv2d_16   | +36,736(+14350.0%)    +2,342,944(+14300.2%)   Conv2D_[38]                       
------ -------------------------------------------------------- ---------------------- ---------------- ----------- ------------------------ --- --------------------- ----------------------- --------------------------------- 
56     activation_15 (Nonlinearity, Activation)                 [b:1,h:16,w:16,c:32]                          8,192   batch_normalization_15   |                                               Nonlinearity_[39]                 
------ -------------------------------------------------------- ---------------------- ---------------- ----------- ------------------------ --- --------------------- ----------------------- --------------------------------- 
57     conv2d_17 (Conv2D, Conv2D)                               [b:1,h:16,w:16,c:32]   9,248/36,992       2,359,328            activation_15   | -36,992(-100.0%)      -2,359,328(-100.0%)     
------ -------------------------------------------------------- ---------------------- ---------------- ----------- ------------------------ --- --------------------- ----------------------- --------------------------------- 
58     batch_normalization_16 (ScaleBias, BatchNormalization)   [b:1,h:16,w:16,c:32]   64/256                16,384                conv2d_17   | +36,736(+14350.0%)    +2,342,944(+14300.2%)   Conv2D_[40]                       
------ -------------------------------------------------------- ---------------------- ---------------- ----------- ------------------------ --- --------------------- ----------------------- --------------------------------- 
59     add_7 (Eltwise, Add)                                     [b:1,h:16,w:16,c:32]                          8,192            activation_14   |                                               Eltwise/add_[41]                  
                                                                                                                      batch_normalization_16   | 
------ -------------------------------------------------------- ---------------------- ---------------- ----------- ------------------------ --- --------------------- ----------------------- --------------------------------- 
60     activation_16 (Nonlinearity, Activation)                 [b:1,h:16,w:16,c:32]                          8,192                    add_7   |                                               Nonlinearity_[42]                 
------ -------------------------------------------------------- ---------------------- ---------------- ----------- ------------------------ --- --------------------- ----------------------- --------------------------------- 
61     conv2d_18 (Conv2D, Conv2D)                               [b:1,h:16,w:16,c:32]   9,248/36,992       2,359,328            activation_16   | -36,992(-100.0%)      -2,359,328(-100.0%)     
------ -------------------------------------------------------- ---------------------- ---------------- ----------- ------------------------ --- --------------------- ----------------------- --------------------------------- 
62     batch_normalization_17 (ScaleBias, BatchNormalization)   [b:1,h:16,w:16,c:32]   64/256                16,384                conv2d_18   | +36,736(+14350.0%)    +2,342,944(+14300.2%)   Conv2D_[43]                       
------ -------------------------------------------------------- ---------------------- ---------------- ----------- ------------------------ --- --------------------- ----------------------- --------------------------------- 
63     activation_17 (Nonlinearity, Activation)                 [b:1,h:16,w:16,c:32]                          8,192   batch_normalization_17   |                                               Nonlinearity_[44]                 
------ -------------------------------------------------------- ---------------------- ---------------- ----------- ------------------------ --- --------------------- ----------------------- --------------------------------- 
64     conv2d_19 (Conv2D, Conv2D)                               [b:1,h:16,w:16,c:32]   9,248/36,992       2,359,328            activation_17   | -36,992(-100.0%)      -2,359,328(-100.0%)     
------ -------------------------------------------------------- ---------------------- ---------------- ----------- ------------------------ --- --------------------- ----------------------- --------------------------------- 
65     batch_normalization_18 (ScaleBias, BatchNormalization)   [b:1,h:16,w:16,c:32]   64/256                16,384                conv2d_19   | +36,736(+14350.0%)    +2,342,944(+14300.2%)   Conv2D_[45]                       
------ -------------------------------------------------------- ---------------------- ---------------- ----------- ------------------------ --- --------------------- ----------------------- --------------------------------- 
66     add_8 (Eltwise, Add)                                     [b:1,h:16,w:16,c:32]                          8,192            activation_16   |                                               Eltwise/add_[46]                  
                                                                                                                      batch_normalization_18   | 
------ -------------------------------------------------------- ---------------------- ---------------- ----------- ------------------------ --- --------------------- ----------------------- --------------------------------- 
67     activation_18 (Nonlinearity, Activation)                 [b:1,h:16,w:16,c:32]                          8,192                    add_8   |                                               Nonlinearity_[47]                 
------ -------------------------------------------------------- ---------------------- ---------------- ----------- ------------------------ --- --------------------- ----------------------- --------------------------------- 
68     conv2d_20 (Conv2D, Conv2D)                               [b:1,h:16,w:16,c:32]   9,248/36,992       2,359,328            activation_18   | -36,992(-100.0%)      -2,359,328(-100.0%)     
------ -------------------------------------------------------- ---------------------- ---------------- ----------- ------------------------ --- --------------------- ----------------------- --------------------------------- 
69     batch_normalization_19 (ScaleBias, BatchNormalization)   [b:1,h:16,w:16,c:32]   64/256                16,384                conv2d_20   | +36,736(+14350.0%)    +2,342,944(+14300.2%)   Conv2D_[48]                       
------ -------------------------------------------------------- ---------------------- ---------------- ----------- ------------------------ --- --------------------- ----------------------- --------------------------------- 
70     activation_19 (Nonlinearity, Activation)                 [b:1,h:16,w:16,c:32]                          8,192   batch_normalization_19   |                                               Nonlinearity_[49]                 
------ -------------------------------------------------------- ---------------------- ---------------- ----------- ------------------------ --- --------------------- ----------------------- --------------------------------- 
71     conv2d_21 (Conv2D, Conv2D)                               [b:1,h:16,w:16,c:32]   9,248/36,992       2,359,328            activation_19   | -36,992(-100.0%)      -2,359,328(-100.0%)     
------ -------------------------------------------------------- ---------------------- ---------------- ----------- ------------------------ --- --------------------- ----------------------- --------------------------------- 
72     batch_normalization_20 (ScaleBias, BatchNormalization)   [b:1,h:16,w:16,c:32]   64/256                16,384                conv2d_21   | +36,736(+14350.0%)    +2,342,944(+14300.2%)   Conv2D_[50]                       
------ -------------------------------------------------------- ---------------------- ---------------- ----------- ------------------------ --- --------------------- ----------------------- --------------------------------- 
73     add_9 (Eltwise, Add)                                     [b:1,h:16,w:16,c:32]                          8,192            activation_18   |                                               Eltwise/add_[51]                  
                                                                                                                      batch_normalization_20   | 
------ -------------------------------------------------------- ---------------------- ---------------- ----------- ------------------------ --- --------------------- ----------------------- --------------------------------- 
74     activation_20 (Nonlinearity, Activation)                 [b:1,h:16,w:16,c:32]                          8,192                    add_9   |                                               Nonlinearity_[52]                 
------ -------------------------------------------------------- ---------------------- ---------------- ----------- ------------------------ --- --------------------- ----------------------- --------------------------------- 
75     conv2d_22 (Conv2D, Conv2D)                               [b:1,h:8,w:8,c:64]     18,496/73,984      1,179,712            activation_20   | -73,984(-100.0%)      -1,179,712(-100.0%)     
------ -------------------------------------------------------- ---------------------- ---------------- ----------- ------------------------ --- --------------------- ----------------------- --------------------------------- 
76     batch_normalization_21 (ScaleBias, BatchNormalization)   [b:1,h:8,w:8,c:64]     128/512                8,192                conv2d_22   | +73,472(+14350.0%)    +1,171,520(+14300.8%)   Conv2D_[54]                       
------ -------------------------------------------------------- ---------------------- ---------------- ----------- ------------------------ --- --------------------- ----------------------- --------------------------------- 
77     activation_21 (Nonlinearity, Activation)                 [b:1,h:8,w:8,c:64]                            4,096   batch_normalization_21   |                                               Nonlinearity_[55]                 
------ -------------------------------------------------------- ---------------------- ---------------- ----------- ------------------------ --- --------------------- ----------------------- --------------------------------- 
78     conv2d_23 (Conv2D, Conv2D)                               [b:1,h:8,w:8,c:64]     36,928/147,712     2,359,360            activation_21   | -147,712(-100.0%)     -2,359,360(-100.0%)     
------ -------------------------------------------------------- ---------------------- ---------------- ----------- ------------------------ --- --------------------- ----------------------- --------------------------------- 
79     conv2d_24 (Conv2D, Conv2D)                               [b:1,h:8,w:8,c:64]     2,112/8,448          131,136            activation_20   |                                               Conv2D_[53]                       
------ -------------------------------------------------------- ---------------------- ---------------- ----------- ------------------------ --- --------------------- ----------------------- --------------------------------- 
80     batch_normalization_22 (ScaleBias, BatchNormalization)   [b:1,h:8,w:8,c:64]     128/512                8,192                conv2d_23   | +147,200(+28750.0%)   +2,351,168(+28700.8%)   Conv2D_[56]                       
------ -------------------------------------------------------- ---------------------- ---------------- ----------- ------------------------ --- --------------------- ----------------------- --------------------------------- 
81     add_10 (Eltwise, Add)                                    [b:1,h:8,w:8,c:64]                            4,096                conv2d_24   |                                               Eltwise/add_[57]                  
                                                                                                                      batch_normalization_22   | 
------ -------------------------------------------------------- ---------------------- ---------------- ----------- ------------------------ --- --------------------- ----------------------- --------------------------------- 
82     activation_22 (Nonlinearity, Activation)                 [b:1,h:8,w:8,c:64]                            4,096                   add_10   |                                               Nonlinearity_[58]                 
------ -------------------------------------------------------- ---------------------- ---------------- ----------- ------------------------ --- --------------------- ----------------------- --------------------------------- 
83     conv2d_25 (Conv2D, Conv2D)                               [b:1,h:8,w:8,c:64]     36,928/147,712     2,359,360            activation_22   | -147,712(-100.0%)     -2,359,360(-100.0%)     
------ -------------------------------------------------------- ---------------------- ---------------- ----------- ------------------------ --- --------------------- ----------------------- --------------------------------- 
84     batch_normalization_23 (ScaleBias, BatchNormalization)   [b:1,h:8,w:8,c:64]     128/512                8,192                conv2d_25   | +147,200(+28750.0%)   +2,351,168(+28700.8%)   Conv2D_[59]                       
------ -------------------------------------------------------- ---------------------- ---------------- ----------- ------------------------ --- --------------------- ----------------------- --------------------------------- 
85     activation_23 (Nonlinearity, Activation)                 [b:1,h:8,w:8,c:64]                            4,096   batch_normalization_23   |                                               Nonlinearity_[60]                 
------ -------------------------------------------------------- ---------------------- ---------------- ----------- ------------------------ --- --------------------- ----------------------- --------------------------------- 
86     conv2d_26 (Conv2D, Conv2D)                               [b:1,h:8,w:8,c:64]     36,928/147,712     2,359,360            activation_23   | -147,712(-100.0%)     -2,359,360(-100.0%)     
------ -------------------------------------------------------- ---------------------- ---------------- ----------- ------------------------ --- --------------------- ----------------------- --------------------------------- 
87     batch_normalization_24 (ScaleBias, BatchNormalization)   [b:1,h:8,w:8,c:64]     128/512                8,192                conv2d_26   | +147,200(+28750.0%)   +2,351,168(+28700.8%)   Conv2D_[61]                       
------ -------------------------------------------------------- ---------------------- ---------------- ----------- ------------------------ --- --------------------- ----------------------- --------------------------------- 
88     add_11 (Eltwise, Add)                                    [b:1,h:8,w:8,c:64]                            4,096            activation_22   |                                               Eltwise/add_[62]                  
                                                                                                                      batch_normalization_24   | 
------ -------------------------------------------------------- ---------------------- ---------------- ----------- ------------------------ --- --------------------- ----------------------- --------------------------------- 
89     activation_24 (Nonlinearity, Activation)                 [b:1,h:8,w:8,c:64]                            4,096                   add_11   |                                               Nonlinearity_[63]                 
------ -------------------------------------------------------- ---------------------- ---------------- ----------- ------------------------ --- --------------------- ----------------------- --------------------------------- 
90     conv2d_27 (Conv2D, Conv2D)                               [b:1,h:8,w:8,c:64]     36,928/147,712     2,359,360            activation_24   | -147,712(-100.0%)     -2,359,360(-100.0%)     
------ -------------------------------------------------------- ---------------------- ---------------- ----------- ------------------------ --- --------------------- ----------------------- --------------------------------- 
91     batch_normalization_25 (ScaleBias, BatchNormalization)   [b:1,h:8,w:8,c:64]     128/512                8,192                conv2d_27   | +147,200(+28750.0%)   +2,351,168(+28700.8%)   Conv2D_[64]                       
------ -------------------------------------------------------- ---------------------- ---------------- ----------- ------------------------ --- --------------------- ----------------------- --------------------------------- 
92     activation_25 (Nonlinearity, Activation)                 [b:1,h:8,w:8,c:64]                            4,096   batch_normalization_25   |                                               Nonlinearity_[65]                 
------ -------------------------------------------------------- ---------------------- ---------------- ----------- ------------------------ --- --------------------- ----------------------- --------------------------------- 
93     conv2d_28 (Conv2D, Conv2D)                               [b:1,h:8,w:8,c:64]     36,928/147,712     2,359,360            activation_25   | -147,712(-100.0%)     -2,359,360(-100.0%)     
------ -------------------------------------------------------- ---------------------- ---------------- ----------- ------------------------ --- --------------------- ----------------------- --------------------------------- 
94     batch_normalization_26 (ScaleBias, BatchNormalization)   [b:1,h:8,w:8,c:64]     128/512                8,192                conv2d_28   | +147,200(+28750.0%)   +2,351,168(+28700.8%)   Conv2D_[66]                       
------ -------------------------------------------------------- ---------------------- ---------------- ----------- ------------------------ --- --------------------- ----------------------- --------------------------------- 
95     add_12 (Eltwise, Add)                                    [b:1,h:8,w:8,c:64]                            4,096            activation_24   |                                               Eltwise/add_[67]                  
                                                                                                                      batch_normalization_26   | 
------ -------------------------------------------------------- ---------------------- ---------------- ----------- ------------------------ --- --------------------- ----------------------- --------------------------------- 
96     activation_26 (Nonlinearity, Activation)                 [b:1,h:8,w:8,c:64]                            4,096                   add_12   |                                               Nonlinearity_[68]                 
------ -------------------------------------------------------- ---------------------- ---------------- ----------- ------------------------ --- --------------------- ----------------------- --------------------------------- 
97     conv2d_29 (Conv2D, Conv2D)                               [b:1,h:8,w:8,c:64]     36,928/147,712     2,359,360            activation_26   | -147,712(-100.0%)     -2,359,360(-100.0%)     
------ -------------------------------------------------------- ---------------------- ---------------- ----------- ------------------------ --- --------------------- ----------------------- --------------------------------- 
98     batch_normalization_27 (ScaleBias, BatchNormalization)   [b:1,h:8,w:8,c:64]     128/512                8,192                conv2d_29   | +147,200(+28750.0%)   +2,351,168(+28700.8%)   Conv2D_[69]                       
------ -------------------------------------------------------- ---------------------- ---------------- ----------- ------------------------ --- --------------------- ----------------------- --------------------------------- 
99     activation_27 (Nonlinearity, Activation)                 [b:1,h:8,w:8,c:64]                            4,096   batch_normalization_27   |                                               Nonlinearity_[70]                 
------ -------------------------------------------------------- ---------------------- ---------------- ----------- ------------------------ --- --------------------- ----------------------- --------------------------------- 
100    conv2d_30 (Conv2D, Conv2D)                               [b:1,h:8,w:8,c:64]     36,928/147,712     2,359,360            activation_27   | -147,712(-100.0%)     -2,359,360(-100.0%)     
------ -------------------------------------------------------- ---------------------- ---------------- ----------- ------------------------ --- --------------------- ----------------------- --------------------------------- 
101    batch_normalization_28 (ScaleBias, BatchNormalization)   [b:1,h:8,w:8,c:64]     128/512                8,192                conv2d_30   | +147,200(+28750.0%)   +2,351,168(+28700.8%)   Conv2D_[71]                       
------ -------------------------------------------------------- ---------------------- ---------------- ----------- ------------------------ --- --------------------- ----------------------- --------------------------------- 
102    add_13 (Eltwise, Add)                                    [b:1,h:8,w:8,c:64]                            4,096            activation_26   |                                               Eltwise/add_[72]                  
                                                                                                                      batch_normalization_28   | 
------ -------------------------------------------------------- ---------------------- ---------------- ----------- ------------------------ --- --------------------- ----------------------- --------------------------------- 
103    activation_28 (Nonlinearity, Activation)                 [b:1,h:8,w:8,c:64]                            4,096                   add_13   |                                               Nonlinearity_[73]                 
------ -------------------------------------------------------- ---------------------- ---------------- ----------- ------------------------ --- --------------------- ----------------------- --------------------------------- 
104    conv2d_31 (Conv2D, Conv2D)                               [b:1,h:8,w:8,c:64]     36,928/147,712     2,359,360            activation_28   | -147,712(-100.0%)     -2,359,360(-100.0%)     
------ -------------------------------------------------------- ---------------------- ---------------- ----------- ------------------------ --- --------------------- ----------------------- --------------------------------- 
105    batch_normalization_29 (ScaleBias, BatchNormalization)   [b:1,h:8,w:8,c:64]     128/512                8,192                conv2d_31   | +147,200(+28750.0%)   +2,351,168(+28700.8%)   Conv2D_[74]                       
------ -------------------------------------------------------- ---------------------- ---------------- ----------- ------------------------ --- --------------------- ----------------------- --------------------------------- 
106    activation_29 (Nonlinearity, Activation)                 [b:1,h:8,w:8,c:64]                            4,096   batch_normalization_29   |                                               Nonlinearity_[75]                 
------ -------------------------------------------------------- ---------------------- ---------------- ----------- ------------------------ --- --------------------- ----------------------- --------------------------------- 
107    conv2d_32 (Conv2D, Conv2D)                               [b:1,h:8,w:8,c:64]     36,928/147,712     2,359,360            activation_29   | -147,712(-100.0%)     -2,359,360(-100.0%)     
------ -------------------------------------------------------- ---------------------- ---------------- ----------- ------------------------ --- --------------------- ----------------------- --------------------------------- 
108    batch_normalization_30 (ScaleBias, BatchNormalization)   [b:1,h:8,w:8,c:64]     128/512                8,192                conv2d_32   | +147,200(+28750.0%)   +2,351,168(+28700.8%)   Conv2D_[76]                       
------ -------------------------------------------------------- ---------------------- ---------------- ----------- ------------------------ --- --------------------- ----------------------- --------------------------------- 
109    add_14 (Eltwise, Add)                                    [b:1,h:8,w:8,c:64]                            4,096            activation_28   |                                               Eltwise/add_[77]                  
                                                                                                                      batch_normalization_30   | 
------ -------------------------------------------------------- ---------------------- ---------------- ----------- ------------------------ --- --------------------- ----------------------- --------------------------------- 
110    activation_30 (Nonlinearity, Activation)                 [b:1,h:8,w:8,c:64]                            4,096                   add_14   |                                               Nonlinearity_[78]                 
------ -------------------------------------------------------- ---------------------- ---------------- ----------- ------------------------ --- --------------------- ----------------------- --------------------------------- 
111    average_pooling2d (Pool, AveragePooling2D)               [b:1,h:1,w:1,c:64]                            4,096            activation_30   |                                               Pool_[79]                         
------ -------------------------------------------------------- ---------------------- ---------------- ----------- ------------------------ --- --------------------- ----------------------- --------------------------------- 
112    flatten (Reshape, Flatten)                               [b:1,c:64]                                                 average_pooling2d   |                                               
------ -------------------------------------------------------- ---------------------- ---------------- ----------- ------------------------ --- --------------------- ----------------------- --------------------------------- 
114    dense_dense (Dense, Dense)                               [b:1,c:100]            6,500/26,000           6,500                  flatten   | -22,336(-85.9%)       +1,500(+23.1%)          Dense_/Nonlinearity_[o][80, 81]   
       dense (Nonlinearity, Dense)                              [b:1,c:100]                                   1,500              dense_dense   |                       -1,500(-100.0%)         
------ -------------------------------------------------------- ---------------------- ---------------- ----------- ------------------------ --- --------------------- ----------------------- --------------------------------- 
model/c-model: macc=70,190,096/69,583,888 -606,208(-0.9%) weights=1,895,184/1,863,760 -31,424(-1.7%) activations=--/136,512 io=--/0



Generated C-graph summary
------------------------------------------------------------------------------------------------------------------------
model name            : resnet_v1_32_32_tfs
c-name                : network
c-node #              : 82
c-array #             : 184
activations size      : 136512 (1 segment)
weights size          : 1863760 (1 segment)
macc                  : 69583888
inputs                : ['input_1_output']
outputs               : ['dense_output']

C-Arrays (184)
------ -------------------------- -------------- ------------------------- ------------------ --------- 
c_id   name (*_array)             item/size      domain/mem-pool           c-type             comment   
------ -------------------------- -------------- ------------------------- ------------------ --------- 
0      activation_10_output       16384/65536    activations/**default**   float                        
1      activation_11_output       8192/32768     activations/**default**   float                        
2      activation_12_output       8192/32768     activations/**default**   float                        
3      activation_13_output       8192/32768     activations/**default**   float                        
4      activation_14_output       8192/32768     activations/**default**   float                        
5      activation_15_output       8192/32768     activations/**default**   float                        
6      activation_16_output       8192/32768     activations/**default**   float                        
7      activation_17_output       8192/32768     activations/**default**   float                        
8      activation_18_output       8192/32768     activations/**default**   float                        
9      activation_19_output       8192/32768     activations/**default**   float                        
10     activation_1_output        16384/65536    activations/**default**   float                        
11     activation_20_output       8192/32768     activations/**default**   float                        
12     activation_21_output       4096/16384     activations/**default**   float                        
13     activation_22_output       4096/16384     activations/**default**   float                        
14     activation_23_output       4096/16384     activations/**default**   float                        
15     activation_24_output       4096/16384     activations/**default**   float                        
16     activation_25_output       4096/16384     activations/**default**   float                        
17     activation_26_output       4096/16384     activations/**default**   float                        
18     activation_27_output       4096/16384     activations/**default**   float                        
19     activation_28_output       4096/16384     activations/**default**   float                        
20     activation_29_output       4096/16384     activations/**default**   float                        
21     activation_2_output        16384/65536    activations/**default**   float                        
22     activation_30_output       4096/16384     activations/**default**   float                        
23     activation_3_output        16384/65536    activations/**default**   float                        
24     activation_4_output        16384/65536    activations/**default**   float                        
25     activation_5_output        16384/65536    activations/**default**   float                        
26     activation_6_output        16384/65536    activations/**default**   float                        
27     activation_7_output        16384/65536    activations/**default**   float                        
28     activation_8_output        16384/65536    activations/**default**   float                        
29     activation_9_output        16384/65536    activations/**default**   float                        
30     activation_output          16384/65536    activations/**default**   float                        
31     add_10_output              4096/16384     activations/**default**   float                        
32     add_11_output              4096/16384     activations/**default**   float                        
33     add_12_output              4096/16384     activations/**default**   float                        
34     add_13_output              4096/16384     activations/**default**   float                        
35     add_14_output              4096/16384     activations/**default**   float                        
36     add_1_output               16384/65536    activations/**default**   float                        
37     add_2_output               16384/65536    activations/**default**   float                        
38     add_3_output               16384/65536    activations/**default**   float                        
39     add_4_output               16384/65536    activations/**default**   float                        
40     add_5_output               8192/32768     activations/**default**   float                        
41     add_6_output               8192/32768     activations/**default**   float                        
42     add_7_output               8192/32768     activations/**default**   float                        
43     add_8_output               8192/32768     activations/**default**   float                        
44     add_9_output               8192/32768     activations/**default**   float                        
45     add_output                 16384/65536    activations/**default**   float                        
46     average_pooling2d_output   64/256         activations/**default**   float                        
47     conv2d_10_bias             16/64          weights/weights           const float                  
48     conv2d_10_output           16384/65536    activations/**default**   float                        
49     conv2d_10_scratch0         144/576        activations/**default**   float                        
50     conv2d_10_weights          2304/9216      weights/weights           const float                  
51     conv2d_11_bias             32/128         weights/weights           const float                  
52     conv2d_11_output           8192/32768     activations/**default**   float                        
53     conv2d_11_scratch0         144/576        activations/**default**   float                        
54     conv2d_11_weights          4608/18432     weights/weights           const float                  
55     conv2d_12_bias             32/128         weights/weights           const float                  
56     conv2d_12_output           8192/32768     activations/**default**   float                        
57     conv2d_12_scratch0         288/1152       activations/**default**   float                        
58     conv2d_12_weights          9216/36864     weights/weights           const float                  
59     conv2d_13_bias             32/128         weights/weights           const float                  
60     conv2d_13_output           8192/32768     activations/**default**   float                        
61     conv2d_13_scratch0         16/64          activations/**default**   float                        
62     conv2d_13_weights          512/2048       weights/weights           const float                  
63     conv2d_14_bias             32/128         weights/weights           const float                  
64     conv2d_14_output           8192/32768     activations/**default**   float                        
65     conv2d_14_scratch0         288/1152       activations/**default**   float                        
66     conv2d_14_weights          9216/36864     weights/weights           const float                  
67     conv2d_15_bias             32/128         weights/weights           const float                  
68     conv2d_15_output           8192/32768     activations/**default**   float                        
69     conv2d_15_scratch0         288/1152       activations/**default**   float                        
70     conv2d_15_weights          9216/36864     weights/weights           const float                  
71     conv2d_16_bias             32/128         weights/weights           const float                  
72     conv2d_16_output           8192/32768     activations/**default**   float                        
73     conv2d_16_scratch0         288/1152       activations/**default**   float                        
74     conv2d_16_weights          9216/36864     weights/weights           const float                  
75     conv2d_17_bias             32/128         weights/weights           const float                  
76     conv2d_17_output           8192/32768     activations/**default**   float                        
77     conv2d_17_scratch0         288/1152       activations/**default**   float                        
78     conv2d_17_weights          9216/36864     weights/weights           const float                  
79     conv2d_18_bias             32/128         weights/weights           const float                  
80     conv2d_18_output           8192/32768     activations/**default**   float                        
81     conv2d_18_scratch0         288/1152       activations/**default**   float                        
82     conv2d_18_weights          9216/36864     weights/weights           const float                  
83     conv2d_19_bias             32/128         weights/weights           const float                  
84     conv2d_19_output           8192/32768     activations/**default**   float                        
85     conv2d_19_scratch0         288/1152       activations/**default**   float                        
86     conv2d_19_weights          9216/36864     weights/weights           const float                  
87     conv2d_1_bias              16/64          weights/weights           const float                  
88     conv2d_1_output            16384/65536    activations/**default**   float                        
89     conv2d_1_scratch0          144/576        activations/**default**   float                        
90     conv2d_1_weights           2304/9216      weights/weights           const float                  
91     conv2d_20_bias             32/128         weights/weights           const float                  
92     conv2d_20_output           8192/32768     activations/**default**   float                        
93     conv2d_20_scratch0         288/1152       activations/**default**   float                        
94     conv2d_20_weights          9216/36864     weights/weights           const float                  
95     conv2d_21_bias             32/128         weights/weights           const float                  
96     conv2d_21_output           8192/32768     activations/**default**   float                        
97     conv2d_21_scratch0         288/1152       activations/**default**   float                        
98     conv2d_21_weights          9216/36864     weights/weights           const float                  
99     conv2d_22_bias             64/256         weights/weights           const float                  
100    conv2d_22_output           4096/16384     activations/**default**   float                        
101    conv2d_22_scratch0         288/1152       activations/**default**   float                        
102    conv2d_22_weights          18432/73728    weights/weights           const float                  
103    conv2d_23_bias             64/256         weights/weights           const float                  
104    conv2d_23_output           4096/16384     activations/**default**   float                        
105    conv2d_23_scratch0         576/2304       activations/**default**   float                        
106    conv2d_23_weights          36864/147456   weights/weights           const float                  
107    conv2d_24_bias             64/256         weights/weights           const float                  
108    conv2d_24_output           4096/16384     activations/**default**   float                        
109    conv2d_24_scratch0         32/128         activations/**default**   float                        
110    conv2d_24_weights          2048/8192      weights/weights           const float                  
111    conv2d_25_bias             64/256         weights/weights           const float                  
112    conv2d_25_output           4096/16384     activations/**default**   float                        
113    conv2d_25_scratch0         576/2304       activations/**default**   float                        
114    conv2d_25_weights          36864/147456   weights/weights           const float                  
115    conv2d_26_bias             64/256         weights/weights           const float                  
116    conv2d_26_output           4096/16384     activations/**default**   float                        
117    conv2d_26_scratch0         576/2304       activations/**default**   float                        
118    conv2d_26_weights          36864/147456   weights/weights           const float                  
119    conv2d_27_bias             64/256         weights/weights           const float                  
120    conv2d_27_output           4096/16384     activations/**default**   float                        
121    conv2d_27_scratch0         576/2304       activations/**default**   float                        
122    conv2d_27_weights          36864/147456   weights/weights           const float                  
123    conv2d_28_bias             64/256         weights/weights           const float                  
124    conv2d_28_output           4096/16384     activations/**default**   float                        
125    conv2d_28_scratch0         576/2304       activations/**default**   float                        
126    conv2d_28_weights          36864/147456   weights/weights           const float                  
127    conv2d_29_bias             64/256         weights/weights           const float                  
128    conv2d_29_output           4096/16384     activations/**default**   float                        
129    conv2d_29_scratch0         576/2304       activations/**default**   float                        
130    conv2d_29_weights          36864/147456   weights/weights           const float                  
131    conv2d_2_bias              16/64          weights/weights           const float                  
132    conv2d_2_output            16384/65536    activations/**default**   float                        
133    conv2d_2_scratch0          144/576        activations/**default**   float                        
134    conv2d_2_weights           2304/9216      weights/weights           const float                  
135    conv2d_30_bias             64/256         weights/weights           const float                  
136    conv2d_30_output           4096/16384     activations/**default**   float                        
137    conv2d_30_scratch0         576/2304       activations/**default**   float                        
138    conv2d_30_weights          36864/147456   weights/weights           const float                  
139    conv2d_31_bias             64/256         weights/weights           const float                  
140    conv2d_31_output           4096/16384     activations/**default**   float                        
141    conv2d_31_scratch0         576/2304       activations/**default**   float                        
142    conv2d_31_weights          36864/147456   weights/weights           const float                  
143    conv2d_32_bias             64/256         weights/weights           const float                  
144    conv2d_32_output           4096/16384     activations/**default**   float                        
145    conv2d_32_scratch0         576/2304       activations/**default**   float                        
146    conv2d_32_weights          36864/147456   weights/weights           const float                  
147    conv2d_3_bias              16/64          weights/weights           const float                  
148    conv2d_3_output            16384/65536    activations/**default**   float                        
149    conv2d_3_scratch0          144/576        activations/**default**   float                        
150    conv2d_3_weights           2304/9216      weights/weights           const float                  
151    conv2d_4_bias              16/64          weights/weights           const float                  
152    conv2d_4_output            16384/65536    activations/**default**   float                        
153    conv2d_4_scratch0          144/576        activations/**default**   float                        
154    conv2d_4_weights           2304/9216      weights/weights           const float                  
155    conv2d_5_bias              16/64          weights/weights           const float                  
156    conv2d_5_output            16384/65536    activations/**default**   float                        
157    conv2d_5_scratch0          144/576        activations/**default**   float                        
158    conv2d_5_weights           2304/9216      weights/weights           const float                  
159    conv2d_6_bias              16/64          weights/weights           const float                  
160    conv2d_6_output            16384/65536    activations/**default**   float                        
161    conv2d_6_scratch0          144/576        activations/**default**   float                        
162    conv2d_6_weights           2304/9216      weights/weights           const float                  
163    conv2d_7_bias              16/64          weights/weights           const float                  
164    conv2d_7_output            16384/65536    activations/**default**   float                        
165    conv2d_7_scratch0          144/576        activations/**default**   float                        
166    conv2d_7_weights           2304/9216      weights/weights           const float                  
167    conv2d_8_bias              16/64          weights/weights           const float                  
168    conv2d_8_output            16384/65536    activations/**default**   float                        
169    conv2d_8_scratch0          144/576        activations/**default**   float                        
170    conv2d_8_weights           2304/9216      weights/weights           const float                  
171    conv2d_9_bias              16/64          weights/weights           const float                  
172    conv2d_9_output            16384/65536    activations/**default**   float                        
173    conv2d_9_scratch0          144/576        activations/**default**   float                        
174    conv2d_9_weights           2304/9216      weights/weights           const float                  
175    conv2d_bias                16/64          weights/weights           const float                  
176    conv2d_output              16384/65536    activations/**default**   float                        
177    conv2d_scratch0            27/108         activations/**default**   float                        
178    conv2d_weights             432/1728       weights/weights           const float                  
179    dense_dense_bias           100/400        weights/weights           const float                  
180    dense_dense_output         100/400        activations/**default**   float                        
181    dense_dense_weights        6400/3264      weights/weights           const lut4_float             
182    dense_output               100/400        activations/**default**   float              /output   
183    input_1_output             3072/12288     activations/**default**   float              /input    
------ -------------------------- -------------- ------------------------- ------------------ --------- 

C-Layers (82)
------ ------------------- ----- --------------- --------- -------- ----------------------------- ----------------------- 
c_id   name (*_layer)      id    layer_type      macc      rom      tensors                       shape (array id)        
------ ------------------- ----- --------------- --------- -------- ----------------------------- ----------------------- 
0      conv2d              2     Conv2D          442384    1792     I: input_1_output             f32(1x32x32x3) (183)    
                                                                    S: conv2d_scratch0                                    
                                                                    W: conv2d_weights             f32(16x3x3x3) (178)     
                                                                    W: conv2d_bias                f32(16) (175)           
                                                                    O: conv2d_output              f32(1x32x32x16) (176)   
------ ------------------- ----- --------------- --------- -------- ----------------------------- ----------------------- 
1      activation          3     Nonlinearity    16384     0        I: conv2d_output              f32(1x32x32x16) (176)   
                                                                    O: activation_output          f32(1x32x32x16) (30)    
------ ------------------- ----- --------------- --------- -------- ----------------------------- ----------------------- 
2      conv2d_1            5     Conv2D          2359312   9280     I: activation_output          f32(1x32x32x16) (30)    
                                                                    S: conv2d_1_scratch0                                  
                                                                    W: conv2d_1_weights           f32(16x3x3x16) (90)     
                                                                    W: conv2d_1_bias              f32(16) (87)            
                                                                    O: conv2d_1_output            f32(1x32x32x16) (88)    
------ ------------------- ----- --------------- --------- -------- ----------------------------- ----------------------- 
3      activation_1        6     Nonlinearity    16384     0        I: conv2d_1_output            f32(1x32x32x16) (88)    
                                                                    O: activation_1_output        f32(1x32x32x16) (10)    
------ ------------------- ----- --------------- --------- -------- ----------------------------- ----------------------- 
4      conv2d_2            8     Conv2D          2359312   9280     I: activation_1_output        f32(1x32x32x16) (10)    
                                                                    S: conv2d_2_scratch0                                  
                                                                    W: conv2d_2_weights           f32(16x3x3x16) (134)    
                                                                    W: conv2d_2_bias              f32(16) (131)           
                                                                    O: conv2d_2_output            f32(1x32x32x16) (132)   
------ ------------------- ----- --------------- --------- -------- ----------------------------- ----------------------- 
5      add                 9     Eltwise/add     16384     0        I: activation_output          f32(1x32x32x16) (30)    
                                                                    I: conv2d_2_output            f32(1x32x32x16) (30)    
                                                                    O: add_output                 f32(1x32x32x16) (45)    
------ ------------------- ----- --------------- --------- -------- ----------------------------- ----------------------- 
6      activation_2        10    Nonlinearity    16384     0        I: add_output                 f32(1x32x32x16) (45)    
                                                                    O: activation_2_output        f32(1x32x32x16) (21)    
------ ------------------- ----- --------------- --------- -------- ----------------------------- ----------------------- 
7      conv2d_3            12    Conv2D          2359312   9280     I: activation_2_output        f32(1x32x32x16) (21)    
                                                                    S: conv2d_3_scratch0                                  
                                                                    W: conv2d_3_weights           f32(16x3x3x16) (150)    
                                                                    W: conv2d_3_bias              f32(16) (147)           
                                                                    O: conv2d_3_output            f32(1x32x32x16) (148)   
------ ------------------- ----- --------------- --------- -------- ----------------------------- ----------------------- 
8      activation_3        13    Nonlinearity    16384     0        I: conv2d_3_output            f32(1x32x32x16) (148)   
                                                                    O: activation_3_output        f32(1x32x32x16) (23)    
------ ------------------- ----- --------------- --------- -------- ----------------------------- ----------------------- 
9      conv2d_4            15    Conv2D          2359312   9280     I: activation_3_output        f32(1x32x32x16) (23)    
                                                                    S: conv2d_4_scratch0                                  
                                                                    W: conv2d_4_weights           f32(16x3x3x16) (154)    
                                                                    W: conv2d_4_bias              f32(16) (151)           
                                                                    O: conv2d_4_output            f32(1x32x32x16) (152)   
------ ------------------- ----- --------------- --------- -------- ----------------------------- ----------------------- 
10     add_1               16    Eltwise/add     16384     0        I: activation_2_output        f32(1x32x32x16) (21)    
                                                                    I: conv2d_4_output            f32(1x32x32x16) (21)    
                                                                    O: add_1_output               f32(1x32x32x16) (36)    
------ ------------------- ----- --------------- --------- -------- ----------------------------- ----------------------- 
11     activation_4        17    Nonlinearity    16384     0        I: add_1_output               f32(1x32x32x16) (36)    
                                                                    O: activation_4_output        f32(1x32x32x16) (24)    
------ ------------------- ----- --------------- --------- -------- ----------------------------- ----------------------- 
12     conv2d_5            19    Conv2D          2359312   9280     I: activation_4_output        f32(1x32x32x16) (24)    
                                                                    S: conv2d_5_scratch0                                  
                                                                    W: conv2d_5_weights           f32(16x3x3x16) (158)    
                                                                    W: conv2d_5_bias              f32(16) (155)           
                                                                    O: conv2d_5_output            f32(1x32x32x16) (156)   
------ ------------------- ----- --------------- --------- -------- ----------------------------- ----------------------- 
13     activation_5        20    Nonlinearity    16384     0        I: conv2d_5_output            f32(1x32x32x16) (156)   
                                                                    O: activation_5_output        f32(1x32x32x16) (25)    
------ ------------------- ----- --------------- --------- -------- ----------------------------- ----------------------- 
14     conv2d_6            22    Conv2D          2359312   9280     I: activation_5_output        f32(1x32x32x16) (25)    
                                                                    S: conv2d_6_scratch0                                  
                                                                    W: conv2d_6_weights           f32(16x3x3x16) (162)    
                                                                    W: conv2d_6_bias              f32(16) (159)           
                                                                    O: conv2d_6_output            f32(1x32x32x16) (160)   
------ ------------------- ----- --------------- --------- -------- ----------------------------- ----------------------- 
15     add_2               23    Eltwise/add     16384     0        I: activation_4_output        f32(1x32x32x16) (24)    
                                                                    I: conv2d_6_output            f32(1x32x32x16) (24)    
                                                                    O: add_2_output               f32(1x32x32x16) (37)    
------ ------------------- ----- --------------- --------- -------- ----------------------------- ----------------------- 
16     activation_6        24    Nonlinearity    16384     0        I: add_2_output               f32(1x32x32x16) (37)    
                                                                    O: activation_6_output        f32(1x32x32x16) (26)    
------ ------------------- ----- --------------- --------- -------- ----------------------------- ----------------------- 
17     conv2d_7            26    Conv2D          2359312   9280     I: activation_6_output        f32(1x32x32x16) (26)    
                                                                    S: conv2d_7_scratch0                                  
                                                                    W: conv2d_7_weights           f32(16x3x3x16) (166)    
                                                                    W: conv2d_7_bias              f32(16) (163)           
                                                                    O: conv2d_7_output            f32(1x32x32x16) (164)   
------ ------------------- ----- --------------- --------- -------- ----------------------------- ----------------------- 
18     activation_7        27    Nonlinearity    16384     0        I: conv2d_7_output            f32(1x32x32x16) (164)   
                                                                    O: activation_7_output        f32(1x32x32x16) (27)    
------ ------------------- ----- --------------- --------- -------- ----------------------------- ----------------------- 
19     conv2d_8            29    Conv2D          2359312   9280     I: activation_7_output        f32(1x32x32x16) (27)    
                                                                    S: conv2d_8_scratch0                                  
                                                                    W: conv2d_8_weights           f32(16x3x3x16) (170)    
                                                                    W: conv2d_8_bias              f32(16) (167)           
                                                                    O: conv2d_8_output            f32(1x32x32x16) (168)   
------ ------------------- ----- --------------- --------- -------- ----------------------------- ----------------------- 
20     add_3               30    Eltwise/add     16384     0        I: activation_6_output        f32(1x32x32x16) (26)    
                                                                    I: conv2d_8_output            f32(1x32x32x16) (26)    
                                                                    O: add_3_output               f32(1x32x32x16) (38)    
------ ------------------- ----- --------------- --------- -------- ----------------------------- ----------------------- 
21     activation_8        31    Nonlinearity    16384     0        I: add_3_output               f32(1x32x32x16) (38)    
                                                                    O: activation_8_output        f32(1x32x32x16) (28)    
------ ------------------- ----- --------------- --------- -------- ----------------------------- ----------------------- 
22     conv2d_9            33    Conv2D          2359312   9280     I: activation_8_output        f32(1x32x32x16) (28)    
                                                                    S: conv2d_9_scratch0                                  
                                                                    W: conv2d_9_weights           f32(16x3x3x16) (174)    
                                                                    W: conv2d_9_bias              f32(16) (171)           
                                                                    O: conv2d_9_output            f32(1x32x32x16) (172)   
------ ------------------- ----- --------------- --------- -------- ----------------------------- ----------------------- 
23     activation_9        34    Nonlinearity    16384     0        I: conv2d_9_output            f32(1x32x32x16) (172)   
                                                                    O: activation_9_output        f32(1x32x32x16) (29)    
------ ------------------- ----- --------------- --------- -------- ----------------------------- ----------------------- 
24     conv2d_10           36    Conv2D          2359312   9280     I: activation_9_output        f32(1x32x32x16) (29)    
                                                                    S: conv2d_10_scratch0                                 
                                                                    W: conv2d_10_weights          f32(16x3x3x16) (50)     
                                                                    W: conv2d_10_bias             f32(16) (47)            
                                                                    O: conv2d_10_output           f32(1x32x32x16) (48)    
------ ------------------- ----- --------------- --------- -------- ----------------------------- ----------------------- 
25     add_4               37    Eltwise/add     16384     0        I: activation_8_output        f32(1x32x32x16) (28)    
                                                                    I: conv2d_10_output           f32(1x32x32x16) (28)    
                                                                    O: add_4_output               f32(1x32x32x16) (39)    
------ ------------------- ----- --------------- --------- -------- ----------------------------- ----------------------- 
26     activation_10       38    Nonlinearity    16384     0        I: add_4_output               f32(1x32x32x16) (39)    
                                                                    O: activation_10_output       f32(1x32x32x16) (0)     
------ ------------------- ----- --------------- --------- -------- ----------------------------- ----------------------- 
27     conv2d_13           43    Conv2D          131104    2176     I: activation_10_output       f32(1x32x32x16) (0)     
                                                                    S: conv2d_13_scratch0                                 
                                                                    W: conv2d_13_weights          f32(32x1x1x16) (62)     
                                                                    W: conv2d_13_bias             f32(32) (59)            
                                                                    O: conv2d_13_output           f32(1x16x16x32) (60)    
------ ------------------- ----- --------------- --------- -------- ----------------------------- ----------------------- 
28     conv2d_11           40    Conv2D          1179680   18560    I: activation_10_output       f32(1x32x32x16) (0)     
                                                                    S: conv2d_11_scratch0                                 
                                                                    W: conv2d_11_weights          f32(32x3x3x16) (54)     
                                                                    W: conv2d_11_bias             f32(32) (51)            
                                                                    O: conv2d_11_output           f32(1x16x16x32) (52)    
------ ------------------- ----- --------------- --------- -------- ----------------------------- ----------------------- 
29     activation_11       41    Nonlinearity    8192      0        I: conv2d_11_output           f32(1x16x16x32) (52)    
                                                                    O: activation_11_output       f32(1x16x16x32) (1)     
------ ------------------- ----- --------------- --------- -------- ----------------------------- ----------------------- 
30     conv2d_12           44    Conv2D          2359328   36992    I: activation_11_output       f32(1x16x16x32) (1)     
                                                                    S: conv2d_12_scratch0                                 
                                                                    W: conv2d_12_weights          f32(32x3x3x32) (58)     
                                                                    W: conv2d_12_bias             f32(32) (55)            
                                                                    O: conv2d_12_output           f32(1x16x16x32) (56)    
------ ------------------- ----- --------------- --------- -------- ----------------------------- ----------------------- 
31     add_5               45    Eltwise/add     8192      0        I: conv2d_13_output           f32(1x16x16x32) (60)    
                                                                    I: conv2d_12_output           f32(1x16x16x32) (60)    
                                                                    O: add_5_output               f32(1x16x16x32) (40)    
------ ------------------- ----- --------------- --------- -------- ----------------------------- ----------------------- 
32     activation_12       46    Nonlinearity    8192      0        I: add_5_output               f32(1x16x16x32) (40)    
                                                                    O: activation_12_output       f32(1x16x16x32) (2)     
------ ------------------- ----- --------------- --------- -------- ----------------------------- ----------------------- 
33     conv2d_14           48    Conv2D          2359328   36992    I: activation_12_output       f32(1x16x16x32) (2)     
                                                                    S: conv2d_14_scratch0                                 
                                                                    W: conv2d_14_weights          f32(32x3x3x32) (66)     
                                                                    W: conv2d_14_bias             f32(32) (63)            
                                                                    O: conv2d_14_output           f32(1x16x16x32) (64)    
------ ------------------- ----- --------------- --------- -------- ----------------------------- ----------------------- 
34     activation_13       49    Nonlinearity    8192      0        I: conv2d_14_output           f32(1x16x16x32) (64)    
                                                                    O: activation_13_output       f32(1x16x16x32) (3)     
------ ------------------- ----- --------------- --------- -------- ----------------------------- ----------------------- 
35     conv2d_15           51    Conv2D          2359328   36992    I: activation_13_output       f32(1x16x16x32) (3)     
                                                                    S: conv2d_15_scratch0                                 
                                                                    W: conv2d_15_weights          f32(32x3x3x32) (70)     
                                                                    W: conv2d_15_bias             f32(32) (67)            
                                                                    O: conv2d_15_output           f32(1x16x16x32) (68)    
------ ------------------- ----- --------------- --------- -------- ----------------------------- ----------------------- 
36     add_6               52    Eltwise/add     8192      0        I: activation_12_output       f32(1x16x16x32) (2)     
                                                                    I: conv2d_15_output           f32(1x16x16x32) (2)     
                                                                    O: add_6_output               f32(1x16x16x32) (41)    
------ ------------------- ----- --------------- --------- -------- ----------------------------- ----------------------- 
37     activation_14       53    Nonlinearity    8192      0        I: add_6_output               f32(1x16x16x32) (41)    
                                                                    O: activation_14_output       f32(1x16x16x32) (4)     
------ ------------------- ----- --------------- --------- -------- ----------------------------- ----------------------- 
38     conv2d_16           55    Conv2D          2359328   36992    I: activation_14_output       f32(1x16x16x32) (4)     
                                                                    S: conv2d_16_scratch0                                 
                                                                    W: conv2d_16_weights          f32(32x3x3x32) (74)     
                                                                    W: conv2d_16_bias             f32(32) (71)            
                                                                    O: conv2d_16_output           f32(1x16x16x32) (72)    
------ ------------------- ----- --------------- --------- -------- ----------------------------- ----------------------- 
39     activation_15       56    Nonlinearity    8192      0        I: conv2d_16_output           f32(1x16x16x32) (72)    
                                                                    O: activation_15_output       f32(1x16x16x32) (5)     
------ ------------------- ----- --------------- --------- -------- ----------------------------- ----------------------- 
40     conv2d_17           58    Conv2D          2359328   36992    I: activation_15_output       f32(1x16x16x32) (5)     
                                                                    S: conv2d_17_scratch0                                 
                                                                    W: conv2d_17_weights          f32(32x3x3x32) (78)     
                                                                    W: conv2d_17_bias             f32(32) (75)            
                                                                    O: conv2d_17_output           f32(1x16x16x32) (76)    
------ ------------------- ----- --------------- --------- -------- ----------------------------- ----------------------- 
41     add_7               59    Eltwise/add     8192      0        I: activation_14_output       f32(1x16x16x32) (4)     
                                                                    I: conv2d_17_output           f32(1x16x16x32) (4)     
                                                                    O: add_7_output               f32(1x16x16x32) (42)    
------ ------------------- ----- --------------- --------- -------- ----------------------------- ----------------------- 
42     activation_16       60    Nonlinearity    8192      0        I: add_7_output               f32(1x16x16x32) (42)    
                                                                    O: activation_16_output       f32(1x16x16x32) (6)     
------ ------------------- ----- --------------- --------- -------- ----------------------------- ----------------------- 
43     conv2d_18           62    Conv2D          2359328   36992    I: activation_16_output       f32(1x16x16x32) (6)     
                                                                    S: conv2d_18_scratch0                                 
                                                                    W: conv2d_18_weights          f32(32x3x3x32) (82)     
                                                                    W: conv2d_18_bias             f32(32) (79)            
                                                                    O: conv2d_18_output           f32(1x16x16x32) (80)    
------ ------------------- ----- --------------- --------- -------- ----------------------------- ----------------------- 
44     activation_17       63    Nonlinearity    8192      0        I: conv2d_18_output           f32(1x16x16x32) (80)    
                                                                    O: activation_17_output       f32(1x16x16x32) (7)     
------ ------------------- ----- --------------- --------- -------- ----------------------------- ----------------------- 
45     conv2d_19           65    Conv2D          2359328   36992    I: activation_17_output       f32(1x16x16x32) (7)     
                                                                    S: conv2d_19_scratch0                                 
                                                                    W: conv2d_19_weights          f32(32x3x3x32) (86)     
                                                                    W: conv2d_19_bias             f32(32) (83)            
                                                                    O: conv2d_19_output           f32(1x16x16x32) (84)    
------ ------------------- ----- --------------- --------- -------- ----------------------------- ----------------------- 
46     add_8               66    Eltwise/add     8192      0        I: activation_16_output       f32(1x16x16x32) (6)     
                                                                    I: conv2d_19_output           f32(1x16x16x32) (6)     
                                                                    O: add_8_output               f32(1x16x16x32) (43)    
------ ------------------- ----- --------------- --------- -------- ----------------------------- ----------------------- 
47     activation_18       67    Nonlinearity    8192      0        I: add_8_output               f32(1x16x16x32) (43)    
                                                                    O: activation_18_output       f32(1x16x16x32) (8)     
------ ------------------- ----- --------------- --------- -------- ----------------------------- ----------------------- 
48     conv2d_20           69    Conv2D          2359328   36992    I: activation_18_output       f32(1x16x16x32) (8)     
                                                                    S: conv2d_20_scratch0                                 
                                                                    W: conv2d_20_weights          f32(32x3x3x32) (94)     
                                                                    W: conv2d_20_bias             f32(32) (91)            
                                                                    O: conv2d_20_output           f32(1x16x16x32) (92)    
------ ------------------- ----- --------------- --------- -------- ----------------------------- ----------------------- 
49     activation_19       70    Nonlinearity    8192      0        I: conv2d_20_output           f32(1x16x16x32) (92)    
                                                                    O: activation_19_output       f32(1x16x16x32) (9)     
------ ------------------- ----- --------------- --------- -------- ----------------------------- ----------------------- 
50     conv2d_21           72    Conv2D          2359328   36992    I: activation_19_output       f32(1x16x16x32) (9)     
                                                                    S: conv2d_21_scratch0                                 
                                                                    W: conv2d_21_weights          f32(32x3x3x32) (98)     
                                                                    W: conv2d_21_bias             f32(32) (95)            
                                                                    O: conv2d_21_output           f32(1x16x16x32) (96)    
------ ------------------- ----- --------------- --------- -------- ----------------------------- ----------------------- 
51     add_9               73    Eltwise/add     8192      0        I: activation_18_output       f32(1x16x16x32) (8)     
                                                                    I: conv2d_21_output           f32(1x16x16x32) (8)     
                                                                    O: add_9_output               f32(1x16x16x32) (44)    
------ ------------------- ----- --------------- --------- -------- ----------------------------- ----------------------- 
52     activation_20       74    Nonlinearity    8192      0        I: add_9_output               f32(1x16x16x32) (44)    
                                                                    O: activation_20_output       f32(1x16x16x32) (11)    
------ ------------------- ----- --------------- --------- -------- ----------------------------- ----------------------- 
53     conv2d_24           79    Conv2D          131136    8448     I: activation_20_output       f32(1x16x16x32) (11)    
                                                                    S: conv2d_24_scratch0                                 
                                                                    W: conv2d_24_weights          f32(64x1x1x32) (110)    
                                                                    W: conv2d_24_bias             f32(64) (107)           
                                                                    O: conv2d_24_output           f32(1x8x8x64) (108)     
------ ------------------- ----- --------------- --------- -------- ----------------------------- ----------------------- 
54     conv2d_22           76    Conv2D          1179712   73984    I: activation_20_output       f32(1x16x16x32) (11)    
                                                                    S: conv2d_22_scratch0                                 
                                                                    W: conv2d_22_weights          f32(64x3x3x32) (102)    
                                                                    W: conv2d_22_bias             f32(64) (99)            
                                                                    O: conv2d_22_output           f32(1x8x8x64) (100)     
------ ------------------- ----- --------------- --------- -------- ----------------------------- ----------------------- 
55     activation_21       77    Nonlinearity    4096      0        I: conv2d_22_output           f32(1x8x8x64) (100)     
                                                                    O: activation_21_output       f32(1x8x8x64) (12)      
------ ------------------- ----- --------------- --------- -------- ----------------------------- ----------------------- 
56     conv2d_23           80    Conv2D          2359360   147712   I: activation_21_output       f32(1x8x8x64) (12)      
                                                                    S: conv2d_23_scratch0                                 
                                                                    W: conv2d_23_weights          f32(64x3x3x64) (106)    
                                                                    W: conv2d_23_bias             f32(64) (103)           
                                                                    O: conv2d_23_output           f32(1x8x8x64) (104)     
------ ------------------- ----- --------------- --------- -------- ----------------------------- ----------------------- 
57     add_10              81    Eltwise/add     4096      0        I: conv2d_24_output           f32(1x8x8x64) (108)     
                                                                    I: conv2d_23_output           f32(1x8x8x64) (108)     
                                                                    O: add_10_output              f32(1x8x8x64) (31)      
------ ------------------- ----- --------------- --------- -------- ----------------------------- ----------------------- 
58     activation_22       82    Nonlinearity    4096      0        I: add_10_output              f32(1x8x8x64) (31)      
                                                                    O: activation_22_output       f32(1x8x8x64) (13)      
------ ------------------- ----- --------------- --------- -------- ----------------------------- ----------------------- 
59     conv2d_25           84    Conv2D          2359360   147712   I: activation_22_output       f32(1x8x8x64) (13)      
                                                                    S: conv2d_25_scratch0                                 
                                                                    W: conv2d_25_weights          f32(64x3x3x64) (114)    
                                                                    W: conv2d_25_bias             f32(64) (111)           
                                                                    O: conv2d_25_output           f32(1x8x8x64) (112)     
------ ------------------- ----- --------------- --------- -------- ----------------------------- ----------------------- 
60     activation_23       85    Nonlinearity    4096      0        I: conv2d_25_output           f32(1x8x8x64) (112)     
                                                                    O: activation_23_output       f32(1x8x8x64) (14)      
------ ------------------- ----- --------------- --------- -------- ----------------------------- ----------------------- 
61     conv2d_26           87    Conv2D          2359360   147712   I: activation_23_output       f32(1x8x8x64) (14)      
                                                                    S: conv2d_26_scratch0                                 
                                                                    W: conv2d_26_weights          f32(64x3x3x64) (118)    
                                                                    W: conv2d_26_bias             f32(64) (115)           
                                                                    O: conv2d_26_output           f32(1x8x8x64) (116)     
------ ------------------- ----- --------------- --------- -------- ----------------------------- ----------------------- 
62     add_11              88    Eltwise/add     4096      0        I: activation_22_output       f32(1x8x8x64) (13)      
                                                                    I: conv2d_26_output           f32(1x8x8x64) (13)      
                                                                    O: add_11_output              f32(1x8x8x64) (32)      
------ ------------------- ----- --------------- --------- -------- ----------------------------- ----------------------- 
63     activation_24       89    Nonlinearity    4096      0        I: add_11_output              f32(1x8x8x64) (32)      
                                                                    O: activation_24_output       f32(1x8x8x64) (15)      
------ ------------------- ----- --------------- --------- -------- ----------------------------- ----------------------- 
64     conv2d_27           91    Conv2D          2359360   147712   I: activation_24_output       f32(1x8x8x64) (15)      
                                                                    S: conv2d_27_scratch0                                 
                                                                    W: conv2d_27_weights          f32(64x3x3x64) (122)    
                                                                    W: conv2d_27_bias             f32(64) (119)           
                                                                    O: conv2d_27_output           f32(1x8x8x64) (120)     
------ ------------------- ----- --------------- --------- -------- ----------------------------- ----------------------- 
65     activation_25       92    Nonlinearity    4096      0        I: conv2d_27_output           f32(1x8x8x64) (120)     
                                                                    O: activation_25_output       f32(1x8x8x64) (16)      
------ ------------------- ----- --------------- --------- -------- ----------------------------- ----------------------- 
66     conv2d_28           94    Conv2D          2359360   147712   I: activation_25_output       f32(1x8x8x64) (16)      
                                                                    S: conv2d_28_scratch0                                 
                                                                    W: conv2d_28_weights          f32(64x3x3x64) (126)    
                                                                    W: conv2d_28_bias             f32(64) (123)           
                                                                    O: conv2d_28_output           f32(1x8x8x64) (124)     
------ ------------------- ----- --------------- --------- -------- ----------------------------- ----------------------- 
67     add_12              95    Eltwise/add     4096      0        I: activation_24_output       f32(1x8x8x64) (15)      
                                                                    I: conv2d_28_output           f32(1x8x8x64) (15)      
                                                                    O: add_12_output              f32(1x8x8x64) (33)      
------ ------------------- ----- --------------- --------- -------- ----------------------------- ----------------------- 
68     activation_26       96    Nonlinearity    4096      0        I: add_12_output              f32(1x8x8x64) (33)      
                                                                    O: activation_26_output       f32(1x8x8x64) (17)      
------ ------------------- ----- --------------- --------- -------- ----------------------------- ----------------------- 
69     conv2d_29           98    Conv2D          2359360   147712   I: activation_26_output       f32(1x8x8x64) (17)      
                                                                    S: conv2d_29_scratch0                                 
                                                                    W: conv2d_29_weights          f32(64x3x3x64) (130)    
                                                                    W: conv2d_29_bias             f32(64) (127)           
                                                                    O: conv2d_29_output           f32(1x8x8x64) (128)     
------ ------------------- ----- --------------- --------- -------- ----------------------------- ----------------------- 
70     activation_27       99    Nonlinearity    4096      0        I: conv2d_29_output           f32(1x8x8x64) (128)     
                                                                    O: activation_27_output       f32(1x8x8x64) (18)      
------ ------------------- ----- --------------- --------- -------- ----------------------------- ----------------------- 
71     conv2d_30           101   Conv2D          2359360   147712   I: activation_27_output       f32(1x8x8x64) (18)      
                                                                    S: conv2d_30_scratch0                                 
                                                                    W: conv2d_30_weights          f32(64x3x3x64) (138)    
                                                                    W: conv2d_30_bias             f32(64) (135)           
                                                                    O: conv2d_30_output           f32(1x8x8x64) (136)     
------ ------------------- ----- --------------- --------- -------- ----------------------------- ----------------------- 
72     add_13              102   Eltwise/add     4096      0        I: activation_26_output       f32(1x8x8x64) (17)      
                                                                    I: conv2d_30_output           f32(1x8x8x64) (17)      
                                                                    O: add_13_output              f32(1x8x8x64) (34)      
------ ------------------- ----- --------------- --------- -------- ----------------------------- ----------------------- 
73     activation_28       103   Nonlinearity    4096      0        I: add_13_output              f32(1x8x8x64) (34)      
                                                                    O: activation_28_output       f32(1x8x8x64) (19)      
------ ------------------- ----- --------------- --------- -------- ----------------------------- ----------------------- 
74     conv2d_31           105   Conv2D          2359360   147712   I: activation_28_output       f32(1x8x8x64) (19)      
                                                                    S: conv2d_31_scratch0                                 
                                                                    W: conv2d_31_weights          f32(64x3x3x64) (142)    
                                                                    W: conv2d_31_bias             f32(64) (139)           
                                                                    O: conv2d_31_output           f32(1x8x8x64) (140)     
------ ------------------- ----- --------------- --------- -------- ----------------------------- ----------------------- 
75     activation_29       106   Nonlinearity    4096      0        I: conv2d_31_output           f32(1x8x8x64) (140)     
                                                                    O: activation_29_output       f32(1x8x8x64) (20)      
------ ------------------- ----- --------------- --------- -------- ----------------------------- ----------------------- 
76     conv2d_32           108   Conv2D          2359360   147712   I: activation_29_output       f32(1x8x8x64) (20)      
                                                                    S: conv2d_32_scratch0                                 
                                                                    W: conv2d_32_weights          f32(64x3x3x64) (146)    
                                                                    W: conv2d_32_bias             f32(64) (143)           
                                                                    O: conv2d_32_output           f32(1x8x8x64) (144)     
------ ------------------- ----- --------------- --------- -------- ----------------------------- ----------------------- 
77     add_14              109   Eltwise/add     4096      0        I: activation_28_output       f32(1x8x8x64) (19)      
                                                                    I: conv2d_32_output           f32(1x8x8x64) (19)      
                                                                    O: add_14_output              f32(1x8x8x64) (35)      
------ ------------------- ----- --------------- --------- -------- ----------------------------- ----------------------- 
78     activation_30       110   Nonlinearity    4096      0        I: add_14_output              f32(1x8x8x64) (35)      
                                                                    O: activation_30_output       f32(1x8x8x64) (22)      
------ ------------------- ----- --------------- --------- -------- ----------------------------- ----------------------- 
79     average_pooling2d   111   Pool            4096      0        I: activation_30_output       f32(1x8x8x64) (22)      
                                                                    O: average_pooling2d_output   f32(1x1x1x64) (46)      
------ ------------------- ----- --------------- --------- -------- ----------------------------- ----------------------- 
80     dense_dense         114   Dense           6500      3664     I: average_pooling2d_output   f32(1x1x1x64) (46)      
                                                                    W: dense_dense_weights        c4(100x64) (181)        
                                                                    W: dense_dense_bias           f32(100) (179)          
                                                                    O: dense_dense_output         f32(1x100) (180)        
------ ------------------- ----- --------------- --------- -------- ----------------------------- ----------------------- 
81     dense               114   Nonlinearity    1500      0        I: dense_dense_output         f32(1x100) (180)        
                                                                    O: dense_output               f32(1x100) (182)        
------ ------------------- ----- --------------- --------- -------- ----------------------------- ----------------------- 



Number of operations per c-layer
------- ------ ------------------------------ ------------ -------------- 
c_id    m_id   name (type)                             #op           type 
------- ------ ------------------------------ ------------ -------------- 
0       2      conv2d (Conv2D)                     442,384   smul_f32_f32 
1       3      activation (Nonlinearity)            16,384     op_f32_f32 
2       5      conv2d_1 (Conv2D)                 2,359,312   smul_f32_f32 
3       6      activation_1 (Nonlinearity)          16,384     op_f32_f32 
4       8      conv2d_2 (Conv2D)                 2,359,312   smul_f32_f32 
5       9      add (Eltwise/add)                    16,384     op_f32_f32 
6       10     activation_2 (Nonlinearity)          16,384     op_f32_f32 
7       12     conv2d_3 (Conv2D)                 2,359,312   smul_f32_f32 
8       13     activation_3 (Nonlinearity)          16,384     op_f32_f32 
9       15     conv2d_4 (Conv2D)                 2,359,312   smul_f32_f32 
10      16     add_1 (Eltwise/add)                  16,384     op_f32_f32 
11      17     activation_4 (Nonlinearity)          16,384     op_f32_f32 
12      19     conv2d_5 (Conv2D)                 2,359,312   smul_f32_f32 
13      20     activation_5 (Nonlinearity)          16,384     op_f32_f32 
14      22     conv2d_6 (Conv2D)                 2,359,312   smul_f32_f32 
15      23     add_2 (Eltwise/add)                  16,384     op_f32_f32 
16      24     activation_6 (Nonlinearity)          16,384     op_f32_f32 
17      26     conv2d_7 (Conv2D)                 2,359,312   smul_f32_f32 
18      27     activation_7 (Nonlinearity)          16,384     op_f32_f32 
19      29     conv2d_8 (Conv2D)                 2,359,312   smul_f32_f32 
20      30     add_3 (Eltwise/add)                  16,384     op_f32_f32 
21      31     activation_8 (Nonlinearity)          16,384     op_f32_f32 
22      33     conv2d_9 (Conv2D)                 2,359,312   smul_f32_f32 
23      34     activation_9 (Nonlinearity)          16,384     op_f32_f32 
24      36     conv2d_10 (Conv2D)                2,359,312   smul_f32_f32 
25      37     add_4 (Eltwise/add)                  16,384     op_f32_f32 
26      38     activation_10 (Nonlinearity)         16,384     op_f32_f32 
27      43     conv2d_13 (Conv2D)                  131,104   smul_f32_f32 
28      40     conv2d_11 (Conv2D)                1,179,680   smul_f32_f32 
29      41     activation_11 (Nonlinearity)          8,192     op_f32_f32 
30      44     conv2d_12 (Conv2D)                2,359,328   smul_f32_f32 
31      45     add_5 (Eltwise/add)                   8,192     op_f32_f32 
32      46     activation_12 (Nonlinearity)          8,192     op_f32_f32 
33      48     conv2d_14 (Conv2D)                2,359,328   smul_f32_f32 
34      49     activation_13 (Nonlinearity)          8,192     op_f32_f32 
35      51     conv2d_15 (Conv2D)                2,359,328   smul_f32_f32 
36      52     add_6 (Eltwise/add)                   8,192     op_f32_f32 
37      53     activation_14 (Nonlinearity)          8,192     op_f32_f32 
38      55     conv2d_16 (Conv2D)                2,359,328   smul_f32_f32 
39      56     activation_15 (Nonlinearity)          8,192     op_f32_f32 
40      58     conv2d_17 (Conv2D)                2,359,328   smul_f32_f32 
41      59     add_7 (Eltwise/add)                   8,192     op_f32_f32 
42      60     activation_16 (Nonlinearity)          8,192     op_f32_f32 
43      62     conv2d_18 (Conv2D)                2,359,328   smul_f32_f32 
44      63     activation_17 (Nonlinearity)          8,192     op_f32_f32 
45      65     conv2d_19 (Conv2D)                2,359,328   smul_f32_f32 
46      66     add_8 (Eltwise/add)                   8,192     op_f32_f32 
47      67     activation_18 (Nonlinearity)          8,192     op_f32_f32 
48      69     conv2d_20 (Conv2D)                2,359,328   smul_f32_f32 
49      70     activation_19 (Nonlinearity)          8,192     op_f32_f32 
50      72     conv2d_21 (Conv2D)                2,359,328   smul_f32_f32 
51      73     add_9 (Eltwise/add)                   8,192     op_f32_f32 
52      74     activation_20 (Nonlinearity)          8,192     op_f32_f32 
53      79     conv2d_24 (Conv2D)                  131,136   smul_f32_f32 
54      76     conv2d_22 (Conv2D)                1,179,712   smul_f32_f32 
55      77     activation_21 (Nonlinearity)          4,096     op_f32_f32 
56      80     conv2d_23 (Conv2D)                2,359,360   smul_f32_f32 
57      81     add_10 (Eltwise/add)                  4,096     op_f32_f32 
58      82     activation_22 (Nonlinearity)          4,096     op_f32_f32 
59      84     conv2d_25 (Conv2D)                2,359,360   smul_f32_f32 
60      85     activation_23 (Nonlinearity)          4,096     op_f32_f32 
61      87     conv2d_26 (Conv2D)                2,359,360   smul_f32_f32 
62      88     add_11 (Eltwise/add)                  4,096     op_f32_f32 
63      89     activation_24 (Nonlinearity)          4,096     op_f32_f32 
64      91     conv2d_27 (Conv2D)                2,359,360   smul_f32_f32 
65      92     activation_25 (Nonlinearity)          4,096     op_f32_f32 
66      94     conv2d_28 (Conv2D)                2,359,360   smul_f32_f32 
67      95     add_12 (Eltwise/add)                  4,096     op_f32_f32 
68      96     activation_26 (Nonlinearity)          4,096     op_f32_f32 
69      98     conv2d_29 (Conv2D)                2,359,360   smul_f32_f32 
70      99     activation_27 (Nonlinearity)          4,096     op_f32_f32 
71      101    conv2d_30 (Conv2D)                2,359,360   smul_f32_f32 
72      102    add_13 (Eltwise/add)                  4,096     op_f32_f32 
73      103    activation_28 (Nonlinearity)          4,096     op_f32_f32 
74      105    conv2d_31 (Conv2D)                2,359,360   smul_f32_f32 
75      106    activation_29 (Nonlinearity)          4,096     op_f32_f32 
76      108    conv2d_32 (Conv2D)                2,359,360   smul_f32_f32 
77      109    add_14 (Eltwise/add)                  4,096     op_f32_f32 
78      110    activation_30 (Nonlinearity)          4,096     op_f32_f32 
79      111    average_pooling2d (Pool)              4,096   smul_f32_f32 
80      114    dense_dense (Dense)                   6,500    smul_f32_f4 
81      114    dense (Nonlinearity)                  1,500     op_f32_f32 
------- ------ ------------------------------ ------------ -------------- 
total                                           69,583,888 

Number of operation types
---------------- ------------ ----------- 
operation type              #           % 
---------------- ------------ ----------- 
smul_f32_f32       69,129,424       99.3% 
op_f32_f32            447,964        0.6% 
smul_f32_f4             6,500        0.0% 

Complexity report (model)
------ ------------------------ ------------------------- ------------------------- ---------- 
m_id   name                     c_macc                    c_rom                     c_id       
------ ------------------------ ------------------------- ------------------------- ---------- 
2      batch_normalization      |||                0.6%   |                  0.1%   [0]        
3      activation               |                  0.0%   |                  0.0%   [1]        
5      batch_normalization_1    |||||||||||||||    3.4%   |                  0.5%   [2]        
6      activation_1             |                  0.0%   |                  0.0%   [3]        
8      batch_normalization_2    |||||||||||||||    3.4%   |                  0.5%   [4]        
9      add                      |                  0.0%   |                  0.0%   [5]        
10     activation_2             |                  0.0%   |                  0.0%   [6]        
12     batch_normalization_3    |||||||||||||||    3.4%   |                  0.5%   [7]        
13     activation_3             |                  0.0%   |                  0.0%   [8]        
15     batch_normalization_4    |||||||||||||||    3.4%   |                  0.5%   [9]        
16     add_1                    |                  0.0%   |                  0.0%   [10]       
17     activation_4             |                  0.0%   |                  0.0%   [11]       
19     batch_normalization_5    |||||||||||||||    3.4%   |                  0.5%   [12]       
20     activation_5             |                  0.0%   |                  0.0%   [13]       
22     batch_normalization_6    |||||||||||||||    3.4%   |                  0.5%   [14]       
23     add_2                    |                  0.0%   |                  0.0%   [15]       
24     activation_6             |                  0.0%   |                  0.0%   [16]       
26     batch_normalization_7    |||||||||||||||    3.4%   |                  0.5%   [17]       
27     activation_7             |                  0.0%   |                  0.0%   [18]       
29     batch_normalization_8    |||||||||||||||    3.4%   |                  0.5%   [19]       
30     add_3                    |                  0.0%   |                  0.0%   [20]       
31     activation_8             |                  0.0%   |                  0.0%   [21]       
33     batch_normalization_9    |||||||||||||||    3.4%   |                  0.5%   [22]       
34     activation_9             |                  0.0%   |                  0.0%   [23]       
36     batch_normalization_10   |||||||||||||||    3.4%   |                  0.5%   [24]       
37     add_4                    |                  0.0%   |                  0.0%   [25]       
38     activation_10            |                  0.0%   |                  0.0%   [26]       
40     batch_normalization_11   ||||||||           1.7%   ||                 1.0%   [28]       
41     activation_11            |                  0.0%   |                  0.0%   [29]       
43     conv2d_13                |                  0.2%   |                  0.1%   [27]       
44     batch_normalization_12   |||||||||||||||    3.4%   ||||               2.0%   [30]       
45     add_5                    |                  0.0%   |                  0.0%   [31]       
46     activation_12            |                  0.0%   |                  0.0%   [32]       
48     batch_normalization_13   |||||||||||||||    3.4%   ||||               2.0%   [33]       
49     activation_13            |                  0.0%   |                  0.0%   [34]       
51     batch_normalization_14   |||||||||||||||    3.4%   ||||               2.0%   [35]       
52     add_6                    |                  0.0%   |                  0.0%   [36]       
53     activation_14            |                  0.0%   |                  0.0%   [37]       
55     batch_normalization_15   |||||||||||||||    3.4%   ||||               2.0%   [38]       
56     activation_15            |                  0.0%   |                  0.0%   [39]       
58     batch_normalization_16   |||||||||||||||    3.4%   ||||               2.0%   [40]       
59     add_7                    |                  0.0%   |                  0.0%   [41]       
60     activation_16            |                  0.0%   |                  0.0%   [42]       
62     batch_normalization_17   |||||||||||||||    3.4%   ||||               2.0%   [43]       
63     activation_17            |                  0.0%   |                  0.0%   [44]       
65     batch_normalization_18   |||||||||||||||    3.4%   ||||               2.0%   [45]       
66     add_8                    |                  0.0%   |                  0.0%   [46]       
67     activation_18            |                  0.0%   |                  0.0%   [47]       
69     batch_normalization_19   |||||||||||||||    3.4%   ||||               2.0%   [48]       
70     activation_19            |                  0.0%   |                  0.0%   [49]       
72     batch_normalization_20   |||||||||||||||    3.4%   ||||               2.0%   [50]       
73     add_9                    |                  0.0%   |                  0.0%   [51]       
74     activation_20            |                  0.0%   |                  0.0%   [52]       
76     batch_normalization_21   ||||||||           1.7%   ||||||||           4.0%   [54]       
77     activation_21            |                  0.0%   |                  0.0%   [55]       
79     conv2d_24                |                  0.2%   |                  0.5%   [53]       
80     batch_normalization_22   ||||||||||||||||   3.4%   ||||||||||||||||   7.9%   [56]       
81     add_10                   |                  0.0%   |                  0.0%   [57]       
82     activation_22            |                  0.0%   |                  0.0%   [58]       
84     batch_normalization_23   ||||||||||||||||   3.4%   ||||||||||||||||   7.9%   [59]       
85     activation_23            |                  0.0%   |                  0.0%   [60]       
87     batch_normalization_24   ||||||||||||||||   3.4%   ||||||||||||||||   7.9%   [61]       
88     add_11                   |                  0.0%   |                  0.0%   [62]       
89     activation_24            |                  0.0%   |                  0.0%   [63]       
91     batch_normalization_25   ||||||||||||||||   3.4%   ||||||||||||||||   7.9%   [64]       
92     activation_25            |                  0.0%   |                  0.0%   [65]       
94     batch_normalization_26   ||||||||||||||||   3.4%   ||||||||||||||||   7.9%   [66]       
95     add_12                   |                  0.0%   |                  0.0%   [67]       
96     activation_26            |                  0.0%   |                  0.0%   [68]       
98     batch_normalization_27   ||||||||||||||||   3.4%   ||||||||||||||||   7.9%   [69]       
99     activation_27            |                  0.0%   |                  0.0%   [70]       
101    batch_normalization_28   ||||||||||||||||   3.4%   ||||||||||||||||   7.9%   [71]       
102    add_13                   |                  0.0%   |                  0.0%   [72]       
103    activation_28            |                  0.0%   |                  0.0%   [73]       
105    batch_normalization_29   ||||||||||||||||   3.4%   ||||||||||||||||   7.9%   [74]       
106    activation_29            |                  0.0%   |                  0.0%   [75]       
108    batch_normalization_30   ||||||||||||||||   3.4%   ||||||||||||||||   7.9%   [76]       
109    add_14                   |                  0.0%   |                  0.0%   [77]       
110    activation_30            |                  0.0%   |                  0.0%   [78]       
111    average_pooling2d        |                  0.0%   |                  0.0%   [79]       
114    dense_dense              |                  0.0%   |                  0.2%   [80, 81]   
------ ------------------------ ------------------------- ------------------------- ---------- 
macc=69,583,888 weights=1,863,760 act=136,512 ram_io=0

Generated files (7)
--------------------------------------------------------------------------------------------- 
/mnt/shared-storage/mrusso/Langgraph_General_v6/analisiAI/code_resnet/network_data_params.h   
/mnt/shared-storage/mrusso/Langgraph_General_v6/analisiAI/code_resnet/network_data_params.c   
/mnt/shared-storage/mrusso/Langgraph_General_v6/analisiAI/code_resnet/network_data.h          
/mnt/shared-storage/mrusso/Langgraph_General_v6/analisiAI/code_resnet/network_data.c          
/mnt/shared-storage/mrusso/Langgraph_General_v6/analisiAI/code_resnet/network_config.h        
/mnt/shared-storage/mrusso/Langgraph_General_v6/analisiAI/code_resnet/network.h               
/mnt/shared-storage/mrusso/Langgraph_General_v6/analisiAI/code_resnet/network.c               
